ex3/GRU_64.pth (torch, 131344 bytes, 8 tensors)

weight f4 [64, 164]
000000 0e 99 09 3e a2 0c 84 be 4c c5 f7 3e 81 b9 d2 be
       0.13437292 -0.25790888 0.48392713 -0.41157153
000010 d4 f5 5e 3d 19 fe 07 be 35 6c 8c bd 27 3e af bd
       0.05443366 -0.13280524 -0.06856576 -0.085567765
000020 c4 9c 3f 3d d5 78 92 3d 31 f1 94 bd e9 db d8 3c
       0.046780363 0.07151953 -0.07272566 0.026472049
000030 50 5e 59 3e a6 28 26 3e 95 78 75 be 41 d4 8a 3e
       0.21227384 0.16226444 -0.2397178 0.27115062
000040 d7 08 1f bc 85 36 ab bd 4e d9 82 bd 41 8e b7 be
       -0.009706697 -0.08360008 -0.06389104 -0.3585072
000050 e1 f2 b0 3e ae d8 a5 bd a1 0e aa 3d 0b b1 89 3d
       0.34560302 -0.08097969 0.083035715 0.067232214
000060 7a b2 92 3d eb 5c 70 be 41 d1 af bc c7 2c b8 ba
       0.07162948 -0.23472945 -0.021462085 -0.0014051431
000070 b5 d7 b3 be 49 9c 7c 3c f0 36 a8 3c 5f 8c 3b bd
       -0.3512551 0.015418121 0.020534009 -0.045788165
000080 e3 bb d9 bc b6 2f cc 3c 6f d7 8b be 60 8c 0c 3e
       -0.02657885 0.024925094 -0.273128 0.13725424
000090 3b 68 12 be 80 ac 24 3d 43 51 7f be b9 f9 93 3b
       -0.14297573 0.04020357 -0.24933343 0.0045158532
0000a0 e9 78 25 3e c0 41 03 bd bc 21 e8 3d 44 f9 8c bd
       0.16159405 -0.032045126 0.11334559 -0.06883481
0000b0 d1 08 6b be 82 ec a6 bd 1c 9a 15 bd b6 f8 0a bd
       -0.22952582 -0.08150579 -0.036523923 -0.033928595
0000c0 c8 e6 05 3c fe 68 f0 3d bf b7 b7 3e b2 87 18 3c
       0.008172698 0.11738776 0.35882375 0.009309696
0000d0 2d 35 77 be c8 a4 be 3e 6e 48 83 3e c6 f0 d8 bd
       -0.24141379 0.37235093 0.25641197 -0.10592799
0000e0 ea e0 8f 3e 7c 19 4d bd b0 b2 09 3e 50 5b d0 bd
       0.28101283 -0.050073132 0.1344707 -0.101736665
0000f0 c5 ed f6 bc 80 c1 9a bc 7d ab 57 3e 3b 0f 21 be
       -0.030142674 -0.018891096 0.21061511 -0.15728466
000100 7f 16 cf be 9f 64 26 3f a8 3e 7b be 3c f9 2c be
       -0.4044685 0.64997286 -0.2453562 -0.1689195
000110 9b 97 d2 bd d4 e3 2c bd 72 f1 03 bf 2a fd 7e 3e
       -0.10282823 -0.04220946 -0.5154029 0.24901262
000120 46 ab 3a be 52 52 9b 3d b6 d5 c0 be fd c7 6e be
       -0.18229398 0.07584061 -0.37663049 -0.23318477
000130 e7 ca 1e 3e 10 98 f0 3d 60 fd bc bd 1e 1e 41 3e
       0.15507089 0.117477536 -0.09228015 0.18859145
000140 7e 09 2b 3e 5e 0b d4 be 35 51 7a bd 24 14 9b 3e
       0.1670284 -0.41414922 -0.0611126 0.30288804
000150 be 63 42 be 7d b3 24 bd 27 d4 4c 3e 39 5b fd 3e
       -0.18983361 -0.040210236 0.20002805 0.4948366
000160 8e 68 8f 3d a5 8f a6 be 37 94 09 3d 0d a5 10 bd
       0.07002364 -0.32531467 0.033588614 -0.035313655
000170 ce e0 e7 39 43 5e 6a be c4 fb 1a be 20 d7 ec bd
       0.00044227246 -0.2288752 -0.15135103 -0.11564469
000180 52 9f 6c be 86 43 d7 3d 9a 30 13 3f 68 f2 9f bb
       -0.23107651 0.10510926 0.57496035 -0.004881192
000190 bc 7f ec bb 92 23 08 be 81 d7 eb bc a2 3a 18 be
       -0.0072173756 -0.13294819 -0.028789284 -0.14866117
0001a0 2c 1f cb 3d ac 52 9c 3d 5b ea 9a bc c6 47 ca 3d
       0.09918055 0.07632956 -0.018910578 0.09876971
0001b0 e1 e9 74 3d 65 30 42 be 8f ff 80 bd c7 64 96 be
       0.059793357 -0.18963774 -0.06298744 -0.29373762
0001c0 c4 29 dc 3e fa 8f 96 bc 1b a6 93 be 4d 5f d3 bd
       0.43000615 -0.0183792 -0.28837666 -0.103209116
0001d0 36 ad a0 3d d2 a4 ad 3c 35 2e aa 3e fc 6b 03 bd
       0.07845537 0.021196757 0.33238378 -0.032085404
0001e0 57 c1 08 be 61 90 bd 3d b7 c1 11 3d 23 01 4f bd
       -0.13355003 0.09256054 0.03558513 -0.050538193
0001f0 a7 25 c3 be 3b 87 95 3d 6c 51 4e 3c 14 a0 57 bd
       -0.38114664 0.07301184 0.012592655 -0.052642897
000200 f1 52 cf 3d 0f de a8 bc e5 71 25 3e 1f bd c1 bc
       0.10123242 -0.020613698 0.16156729 -0.02364975
000210 ae 7b d1 3e a9 13 e7 bd a8 17 10 be 0a e5 9f bb
       0.40914673 -0.11283047 -0.14071524 -0.0048795985
000220 b8 3c 68 3e 6e 3b a6 bd e9 e6 21 bd 86 18 d3 3c
       0.22679412 -0.08116804 -0.039526854 0.02576853
000230 ab 73 17 be 7e ca 8b bd 25 c1 f2 3e ce 80 3d be
       -0.14790218 -0.06825732 0.47412983 -0.18506166
000240 3b d7 89 3d 4f 26 41 be ef 32 53 3d 9e 74 62 3e
       0.06730505 -0.1886227 0.051562246 0.22114798
000250 b1 87 8b bd 4b ff e9 bd 2b be b7 3c 16 88 97 bd
       -0.068129905 -0.114256464 0.022429546 -0.07399003
000260 4f 37 ac 3b 0a 5d cc 3d c6 1e 09 be 33 9f 64 be
       0.0052556167 0.09978683 -0.13390645 -0.22326355
000270 3e 5c e6 3d 48 f4 e7 be 92 09 07 be 84 39 a4 3d
       0.112480626 -0.4530356 -0.13187245 0.08018783
000280 dd a8 1d be 82 16 6c be 53 5f 68 3d 58 07 06 3d
       -0.15396447 -0.23055461 0.056731533 0.032721847
000290 10 be 3b 3e c6 c5 b8 bc ac b1 98 be a2 d0 d1 3e
       0.18334222 -0.022555243 -0.29823053 0.40979487
0002a0 c2 d2 23 3e 46 65 4b bd 3b 3e 6d 3e 91 e0 59 3d
       0.15998366 -0.04965713 0.2316827 0.05319268
0002b0 2a c0 34 be 12 98 99 3d 30 b7 aa 3d 96 6e 19 3e
       -0.1765143 0.07499708 0.083357215 0.14983591
0002c0 d0 9f 65 be 1b 7b 4a 3e c7 db b1 3e ba 56 1e bf
       -0.22424245 0.19773524 0.3473799 -0.61851084
0002d0 47 6a 27 3e 34 04 2a 3e a6 8e ad bb 48 ae 03 3f
       0.16349135 0.16603166 -0.005296546 0.5143781
0002e0 b4 24 08 bd b3 4b 9f be 5d 8d e5 be 27 7b 93 be
       -0.033238128 -0.3111244 -0.44834414 -0.28804895
0002f0 65 b7 e7 be 28 a5 af 3d e4 60 e3 3d 2f a3 33 be
       -0.45257106 0.08576423 0.11102465 -0.17542718
000300 77 07 79 be c2 cd f3 bc 34 36 34 3d 6a 2c 84 bd
       -0.24319254 -0.029761199 0.043997005 -0.06453784
000310 9d 4d af 3d f3 70 93 3e 25 fe 8e be 61 59 68 3e
       0.085597254 0.2879711 -0.27928272 0.22690345
000320 fb 46 64 3e 70 24 f5 3d b3 67 9e 3e 90 66 0b 3c
       0.22292702 0.119698405 0.3093849 0.0085083395
000330 2b 0a b9 be 64 9a 72 3e 4d 27 60 bd c6 dc 4b 3e
       -0.3614057 0.23691708 -0.05472498 0.19908437
000340 a0 b4 3a bc a4 00 22 be ec 4a 26 be b6 93 94 be
       -0.011395603 -0.15820557 -0.16239518 -0.29018945
000350 f4 1a 96 3d 85 e2 d8 be 8a 28 c5 bd fb 33 86 be
       0.0732936 -0.4236032 -0.09626873 -0.26211533
000360 0a 97 05 bc 92 a5 af be 7e 3f bc be 22 77 03 bf
       -0.008153686 -0.34306008 -0.3676719 -0.5135366
000370 f3 5d bb 3d 7a 10 8a be 4e a6 0c bd cc 3c df bd
       0.09148779 -0.26965696 -0.034338288 -0.10900268
000380 7e 91 00 3d cc 7a 68 3d 4b 0a 84 be 61 ec 2c 3e
       0.031388752 0.056757733 -0.25789103 0.16887046
000390 5b c1 4c 3d 44 68 a1 3c 37 6b 2c 3e fc 8b 43 3e
       0.049989086 0.019703038 0.16837774 0.19096369
0003a0 58 4c 19 3e b6 b0 cd be ae 35 81 3e 35 79 6c 3e
       0.14970529 -0.40173882 0.25236267 0.23093112
0003b0 2b 9a 94 3d 44 1c be be 34 27 14 3c e7 6d b0 3e
       0.07255968 -0.3713094 0.00904255 0.3445885
0003c0 bf 0b 01 be 59 4d a6 bd bd 96 85 bd 0b a8 0e be
       -0.12602137 -0.08120222 -0.06522892 -0.13931291
0003d0 46 7f 9b be 7e 08 bd bc 6e 9c 6c 3e 9f 76 93 3e
       -0.3037054 -0.023075338 0.23106548 0.28801438
0003e0 d7 74 06 be 99 a5 e5 3e f7 da fb be 2a 9d 02 bf
       -0.13130508 0.44852903 -0.49190494 -0.51021063
0003f0 34 46 78 be 6e 92 29 bd 97 39 de 3d b4 fc da 3e
       -0.2424553 -0.04139941 0.10850828 0.42770922

bias f4 [64]
000000 e8 a7 1b bd 79 e7 ee be f8 16 ef bd 47 bc 15 bf
       -0.038001925 -0.46660975 -0.11674303 -0.58490413
000010 cf 9c 2d bf c1 71 25 bf 73 45 e5 3d b4 8e e3 bc
       -0.67817396 -0.646267 0.11194887 -0.027778007
000020 41 6e 24 3d 81 83 b5 be 4f 7d 1e 3b 61 07 08 3e
       0.04014421 -0.35451892 0.0024183576 0.13284065
000030 1d 83 be be 03 d3 a0 be 92 04 6d bd 04 3c 13 be
       -0.37209406 -0.3141099 -0.057865687 -0.14378363
000040 5e 64 c3 bd af cf 21 be 0a e3 4d be 69 78 d1 bd
       -0.09540628 -0.15801881 -0.2010614 -0.102280445
000050 34 83 b8 bd 73 2c 7f be fa ce d7 bd 09 16 39 3d
       -0.090094 -0.249193 -0.105375245 0.04518703
000060 98 82 12 be 86 66 9b be 19 bf 4f be 3e 96 36 be
       -0.1430763 -0.30351657 -0.20287742 -0.1783075
000070 37 2c 9d 3c 14 47 24 be f1 1d aa be bc 42 d6 be
       0.019186122 -0.16042739 -0.33225968 -0.4184779
000080 47 cd e3 bc 1f cb 0f 3d 6a 92 ea be b7 ed 45 be
       -0.027807845 0.03510582 -0.4581483 -0.19328962
000090 b9 62 d6 be c5 4e 87 be 27 f6 f7 bd f0 8f a4 be
       -0.41872194 -0.26427284 -0.12107497 -0.32141066
0000a0 ae 6e 30 3d d9 d9 81 be a5 d2 87 be a3 0c 95 bd
       0.043074302 -0.25361517 -0.26527897 -0.07277801
0000b0 9e 79 aa be 5f 2f dc be 2a 46 09 be 0f 42 3c be
       -0.33295912 -0.4300489 -0.13405672 -0.18384574
0000c0 bc 51 74 be c2 bf 3c 3d 89 97 e9 be f7 4d d9 3c
       -0.23859304 0.046081312 -0.45623425 0.026526434
0000d0 82 8f 8e be 8f 03 07 be 60 55 69 bd 78 14 e6 3d
       -0.27843863 -0.13184951 -0.056966186 0.11234373
0000e0 71 89 26 bf a5 8c 8a be 64 0d 08 3e 7d fa 61 be
       -0.6505347 -0.27060428 0.13286358 -0.2206821
0000f0 60 f8 64 be b5 02 83 be 67 b8 1a be ce 5c 5c bd
       -0.22360373 -0.25588003 -0.15109406 -0.053799443

weight f4 [64, 164]
000000 a1 82 3a 3d 0f 42 58 bc 81 5a 32 be 91 5a 6e 3e
       0.045534734 -0.013199343 -0.17417337 0.23276736
000010 0a bd ce 3d 46 7b 46 3d 0f 19 fe 3d 4b 81 90 be
       0.1009465 0.048457406 0.12407123 -0.28223643
000020 ed ac 95 bd ea 64 1e bd ef 42 90 bd 8c 45 b6 3d
       -0.073083736 -0.038670458 -0.070440166 0.08899984
000030 3b f4 4d 3e 76 a7 89 3d da ab 0d 3e 6b 44 4d be
       0.20112698 0.06721394 0.13835087 -0.2004563
000040 ea 28 a9 3d 0a 44 15 bd fb 74 a7 be 5f c5 1e 3d
       0.08259757 -0.03644184 -0.32706437 0.038762446
000050 9c 04 3d bd d1 67 8a 3b 3b e9 1b bd 98 44 85 3e
       -0.046146974 0.0042238017 -0.038064223 0.26028895
000060 70 fc 0c 3d 74 75 57 3d 6d 1b 70 bd ed 66 75 be
       0.03442043 0.052602246 -0.058619905 -0.23965044
000070 bd fc 20 3d 48 76 53 3d 21 8f 4e 3d 0f 36 3a be
       0.03930353 0.051626474 0.050429467 -0.18184684
000080 95 e2 74 3e d9 a0 72 bc 1e 77 1f bd c0 13 4c bc
       0.23914559 -0.014808857 -0.03893196 -0.012455881
000090 1b 02 39 3e c6 c9 94 3d cd 90 b5 bb 27 ae 82 3d
       0.1806721 0.07265048 -0.0055409432 0.06380873
0000a0 26 89 3e bd 20 1f 61 be 1c 43 49 3e 20 3b 1f be
       -0.046517514 -0.2198453 0.19654506 -0.15549898
0000b0 d5 9c 5a bc bf 1a 1b be e9 b0 ac 3d 6e ae 1f be
       -0.013343056 -0.15146922 0.084321804 -0.15593883
0000c0 66 c5 7f 3e 49 61 a4 be cb 5b 53 3e af 22 91 be
       0.24977645 -0.32105473 0.20640485 -0.28346774
0000d0 7a 4a 4b be 25 6a e3 3d 1c 29 36 be c2 81 72 3d
       -0.1985263 0.1110423 -0.1778912 0.059205778
0000e0 21 3e cb bb 61 4f 97 3d 05 68 82 3d be f0 1e be
       -0.0062024747 0.07388187 0.063674964 -0.15521523
0000f0 db f8 27 be a4 69 58 3d 78 f2 9b bd 94 81 91 3e
       -0.16403525 0.05283512 -0.076146066 0.28419173
000100 10 86 25 3e ef 2a 29 3d a8 9f b8 3d 8e 69 44 3e
       0.16164422 0.04130071 0.09014827 0.19180891
000110 d6 61 4e be 4a da 71 3e 2b 52 a3 bd e6 ad 26 be
       -0.20154509 0.23618427 -0.07974657 -0.16277274
000120 13 39 05 3f fe fc 45 bd 1f 8b 8f 3d 68 ec f1 3d
       0.52040213 -0.048336975 0.07008957 0.11812669
000130 8c 42 90 be 24 ec 4d 3e 1a fe c1 3d 42 23 85 3e
       -0.2817577 0.20109612 0.09472294 0.26003462
000140 bf 4b 0b 3d 13 e4 51 3d b5 11 33 bc 3c f1 03 3e
       0.034007784 0.0512429 -0.010929515 0.12884992
000150 36 60 95 3d 09 6b 37 be 2a f5 bc bd c4 80 1b 3e
       0.072937414 -0.17911924 -0.09226449 0.15185839
000160 bc ec 34 bd 24 66 a8 3d 84 ca 08 be ef d0 61 bd
       -0.04417108 0.08222607 -0.13358504 -0.055130895
000170 be 2c 6c 3e 12 dc 02 be 91 cf d8 3e 5e 96 2b 3e
       0.23063943 -0.12779263 0.4234586 0.1675658
000180 11 d8 e0 3d 44 56 71 bc 8b 7c 59 be 7e e2 72 3c
       0.109787114 -0.01473004 -0.21238916 0.014824508
000190 00 95 92 bd 33 b3 e4 bb c7 d7 8d 3e 1d ea 41 3d
       -0.07157326 -0.00697937 0.27703688 0.04734241
0001a0 25 1e 9c 3d ff 92 38 3e 6e d5 19 be a6 a3 3d be
       0.07622937 0.18024825 -0.15022823 -0.18519458
0001b0 a7 f7 3b bd a8 65 31 3f 94 6f 2a 3e fe cc a3 be
       -0.045890477 0.6929574 0.16644126 -0.31992334
0001c0 ba 8d a0 3e e0 24 24 be af d7 09 3f 4c 92 30 3d
       0.3135813 -0.16029692 0.5384473 0.04310827
0001d0 1b 9e b1 3d d0 ae eb 3d b6 87 80 3e b0 7d 0d 3e
       0.08672734 0.11507952 0.2510354 0.13817477
0001e0 ac 10 c7 3d 1a 10 97 bd 16 29 fc bd 8d 04 f0 bd
       0.09719977 -0.07376118 -0.12312524 -0.11719618
0001f0 42 bb ba 3e 2e 91 fc bd 21 b5 d8 bd 4b 54 9f be
       0.3647099 -0.12332378 -0.105814226 -0.31118998
000200 84 a4 80 3c 54 92 00 3e 8c 89 0a 3e c9 53 b0 3d
       0.015703447 0.1255582 0.13529032 0.08609731
000210 64 03 a3 3d ba 71 b3 3e 13 69 c5 3c be 06 e3 bc
       0.07959631 0.35047704 0.024097955 -0.027713176
000220 44 b5 a2 be bc 00 0e 3e dd 4d 43 bd 3b 19 1a be
       -0.3177892 0.13867468 -0.047681678 -0.15048687
000230 77 9f 27 3e b4 96 9b be d8 39 13 3e 37 7f dd 3d
       0.16369425 -0.30388415 0.14377534 0.1081528
000240 da e5 de bd 8a 68 2e be 5b 94 54 3e d2 a5 44 be
       -0.108836845 -0.17032066 0.20759718 -0.1920388
000250 d3 93 2b bd 79 ca 3d 3e 6f 01 92 be 76 16 4f be
       -0.041889023 0.18534268 -0.2851672 -0.20223412
000260 28 b3 bb bd 35 19 32 3e c2 77 08 3f b8 ed a8 3e
       -0.09165031 0.17392428 0.53307736 0.32993865
000270 0c 88 a8 3e 40 8c 9c be f7 e8 02 bd 6f ad 1a 3d
       0.32916296 -0.30575752 -0.031960454 0.037763055
000280 5e 14 d7 3c 92 37 88 be aa 9d f1 bd f5 cc 4d 3e
       0.026254829 -0.26604897 -0.1179765 0.20097716
000290 ca b6 aa 3c fd aa 42 3b 62 fb ea 3d e2 ce f7 bd
       0.020839114 0.0029703968 0.11473729 -0.12100007
0002a0 eb 7e 9b 3c 88 1d c5 bc 7f 96 6d bc d4 0c aa 3d
       0.018981418 -0.024061933 -0.014501213 0.08303228
0002b0 1a 3c 65 3d 4a e8 84 bd 71 5d 8a bd e3 a1 24 be
       0.05596552 -0.06489618 -0.06756104 -0.1607738
0002c0 0e 47 c6 bc 97 ed 7f bd aa 22 3c bd 87 f6 c7 3c
       -0.024203803 -0.062482443 -0.045931496 0.024409546
0002d0 6d 8f 17 bc 3c 5f 3d be 8e d0 d4 3d da e0 44 bd
       -0.009250504 -0.1849336 0.10391341 -0.048065998
0002e0 10 dd be bd 69 4b 74 3c bc dc cc bd b3 05 75 3d
       -0.09319508 0.014910557 -0.10003039 0.05981989
0002f0 ef a4 4e 3e 12 ab a6 3d f5 9b e1 3c b5 94 d9 3d
       0.20180105 0.08138098 0.027540186 0.10624067
000300 aa 8a 7c 3e c3 61 09 be bc f4 c5 3c ac 24 ae bd
       0.24662271 -0.134162 0.02416455 -0.08503088
000310 15 9b 27 3d 79 6d 65 3a 81 08 ae bc 7e f9 df bd
       0.040919382 0.00087519694 -0.02124429 -0.10936259
000320 50 43 9e 3d c9 8b 6d bc 9d ca fb bc 8a e5 ec bd
       0.077276826 -0.014498659 -0.030736262 -0.115672186
000330 64 f4 bf 3c 1a 04 bb bd a9 d9 f0 bd 53 98 e1 bb
       0.023431964 -0.09131642 -0.117602654 -0.0068846135
000340 a5 f1 8b 3d bd ac 15 be b4 5f 30 3e 2b ac 5b 3c
       0.068331994 -0.14616676 0.17224008 0.013407747
000350 8a a4 39 3d 92 15 f3 3b f8 05 c3 3d 1a e2 52 bd
       0.045322932 0.007418343 0.09522623 -0.05148516
000360 89 9b c0 3c 32 58 f2 3d af d5 da bd 7a 82 77 3d
       0.023511665 0.11833228 -0.10685288 0.060427167
000370 2d f1 bf bd c9 fe ad 3c 26 ea c3 bd 02 8b 96 bd
       -0.093721725 0.021239655 -0.09566145 -0.073507324
000380 bf d4 ee bd e5 31 61 3c bf 70 97 bc f5 2a fe ba
       -0.11661672 0.013744806 -0.018486379 -0.0019391464
000390 85 e5 ba be ee fd 50 3b a0 38 13 be c7 38 65 3e
       -0.36503235 0.0031889635 -0.1437707 0.2238494
0003a0 d0 e8 a6 bb d7 61 db 3d d1 3c 03 be bf a2 b4 3d
       -0.0050936714 0.10712021 -0.12816168 0.08820104
0003b0 4d 41 47 bc 8c 81 38 bd 7b e5 cb bd 94 11 89 be
       -0.012161565 -0.04504542 -0.09955879 -0.26771224
0003c0 21 32 8f bc 1f 1f a1 3d dd 31 0b bd c9 f6 fa bd
       -0.017479958 0.07867264 -0.0339831 -0.12254102
0003d0 73 96 eb 3d d4 6a 99 be b6 aa cc bd b1 2b f6 bc
       0.11503305 -0.29964316 -0.09993498 -0.03005013
0003e0 06 aa f3 bd 80 5f 50 be 47 c3 72 bd 27 f1 1a 3e
       -0.11897664 -0.2034893 -0.059268262 0.15131055
0003f0 68 01 0a be 82 3a e1 3d 2d 27 b5 3d 3e bd fa 3c
       -0.13477099 0.109974876 0.08845363 0.030607816

bias f4 [64]
000000 7d b8 c3 3c 20 db 14 bd 52 be b2 bd d3 69 82 bd
       0.023891682 -0.036341786 -0.08727707 -0.063678406
000010 58 14 e6 3d 32 72 97 bb 9d 00 aa 3d 8c be 41 bd
       0.11234349 -0.0046217674 0.08300898 -0.04730086
000020 5f 1a a6 3c f0 17 99 3a 51 68 f7 bd ea f8 55 be
       0.020276247 0.0011680108 -0.12080444 -0.20895734
000030 4b d4 39 3d 64 41 79 bd ec 48 4b 3d 86 42 c9 bd
       0.045368474 -0.060853377 0.04963009 -0.098271415
000040 83 d9 b5 bc 8b 4c 2a bd eb 86 ad bc d0 c2 ea bd
       -0.022198444 -0.041576903 -0.021182498 -0.11462939
000050 72 f0 5b bb 2e e3 f3 bd c2 bd 96 bc 2b 45 66 bb
       -0.0033560065 -0.119085655 -0.01840103 -0.0035136442
000060 16 96 79 3d 0a d4 65 3d 3c e6 f3 bd 4c a8 57 3d
       0.06093415 0.05611042 -0.11909148 0.052650735
000070 02 fb ed bd 3b 56 20 bd 36 6b 8a 3d 47 6f 7e 3c
       -0.116201416 -0.039144736 0.0675873 0.01552946
000080 17 6c fe bc 15 5f a7 3b 3f 89 be 3d c2 dc cb 3c
       -0.0310574 0.00510777 0.09303521 0.024885539
000090 8d 37 31 3d c5 5f 43 3d 05 d4 e0 bc 82 33 90 3d
       0.043265868 0.047698755 -0.027444849 0.07041074
0000a0 a3 57 d6 bd f3 26 3c 3a 50 cf b6 bb 26 aa 07 be
       -0.10465934 0.0007177435 -0.005578913 -0.132485
0000b0 ac b6 51 3d 32 5b d1 3d 40 95 a8 3d d7 fe 1b 3d
       0.0511996 0.10222472 0.08231592 0.03808483
0000c0 69 37 24 bd 92 2f 0c bd 48 c0 0a 3e 2f 20 d8 bd
       -0.040091906 -0.034225054 0.13549912 -0.105530135
0000d0 c8 d8 69 3c 63 13 0f 3b 8c 54 89 bd 92 b9 e7 38
       0.014272876 0.0021831624 -0.06705579 0.000110495035
0000e0 c9 44 b0 3d 8b 21 6e 3d c1 49 4f bc 97 39 cf 3d
       0.0860687 0.058137458 -0.012651862 0.10118406
0000f0 c6 ab c7 bc 0c b2 24 bd 14 a5 fb bd 9d ef e2 bd
       -0.0243739 -0.04020886 -0.122873455 -0.11080859

weight f4 [64, 164]
000000 f1 ea 0b 3c 6e 89 76 3c e1 93 fb 3d 99 0d 7c be
       0.008539901 0.015047414 0.12284065 -0.24614562
000010 7f bc 29 3e 32 69 9c bd 8a 54 25 bb 68 1c 28 3d
       0.16575812 -0.07637252 -0.002522739 0.041042715
000020 f4 90 a7 3c 81 ed 8b 3d 86 4a 09 be e4 95 c8 bd
       0.020454861 0.0683241 -0.13407335 -0.09794214
000030 ae b2 d3 3d 11 cc ee 3d 5f e9 a2 3d ae ab 9f bc
       0.10336815 0.11660016 0.07954668 -0.019491043
000040 38 68 3a 3d e3 4c 62 3d 76 f9 c8 bb 05 a5 a9 bc
       0.045509547 0.055249106 -0.0061332537 -0.02070857
000050 2b b1 b4 3c 8c db 37 3d 4c 68 dd 3a b1 c5 8c 3c
       0.022057137 0.04488711 0.0016892045 0.01718411
000060 12 11 49 3e 2a 89 45 3e 8a ae a3 bd 91 37 5b 3e
       0.19635418 0.19290605 -0.07992275 0.21407916
000070 84 6e dd be 5b 45 a0 bd 0f 67 22 be b9 c8 66 be
       -0.4324838 -0.078257285 -0.15859626 -0.22537507
000080 32 1d 28 3e 33 9c 84 bd 03 6d 9a bd f5 a1 3b 3e
       0.16417387 -0.06475105 -0.075403236 0.183235
000090 9b 6a bb bc 5c 01 95 bc df 4b 4a bd 70 da 2e bd
       -0.022877982 -0.018189125 -0.049388763 -0.042688787
0000a0 fd 12 ae bd 29 bf a4 bd 59 20 e9 bd 38 48 a3 3b
       -0.084997155 -0.080442734 -0.11383123 0.0049829744
0000b0 b8 6d a3 3d ce 05 12 be be fd 62 3d c0 be 6a bd
       0.079799116 -0.14260027 0.05541777 -0.05731082
0000c0 f4 c2 d3 bd 6a db 69 bc 00 de 17 bc 82 dd a3 bd
       -0.10339919 -0.014273504 -0.0092692375 -0.08001234
0000d0 08 95 65 be 10 09 78 3d c0 08 be 3c 0c 9e f2 bd
       -0.22420132 0.060555518 0.023197532 -0.11846551
0000e0 0f ce c0 3d 51 1d ab bc 35 6f b6 3c a4 77 8e 3d
       0.094143026 -0.020888003 0.022269825 0.069564134
0000f0 21 dd b7 bd d5 19 e3 bd 55 e5 d2 3c 50 7b 57 bd
       -0.08977724 -0.110889114 0.02574412 -0.052607834
000100 a5 bf 14 3e b8 1c 0f 3d 1d 93 51 bd 09 08 16 3d
       0.14526232 0.034939498 -0.05116569 0.036628757
000110 64 14 cd 3c f7 09 1e bd bc 3f f9 3d 1d b9 25 3e
       0.025034137 -0.038583722 0.121703595 0.16183896
000120 c1 e6 bc bb 28 1b d2 bd 06 e7 9f bd 39 ce c4 be
       -0.0057648127 -0.10259086 -0.07807736 -0.38438585
000130 8d 91 4a bd 23 8e d2 be 75 f7 94 3e f5 b4 c8 3d
       -0.049455214 -0.41124067 0.29095045 0.0980014
000140 de 5f 2d be c5 fa 64 3e 18 15 c6 3e fb f0 6a bd
       -0.16931102 0.22361286 0.38687968 -0.057358723
000150 a0 e0 8b bd ea 47 94 be 79 06 95 be 4a 38 bd 3d
       -0.06829953 -0.28961116 -0.291065 0.09239252
000160 71 65 d6 bd f8 df eb bd 68 75 bc 3e e5 23 38 bd
       -0.10468567 -0.11517328 0.36808324 -0.044956107
000170 f0 27 e3 bd 73 53 28 3e 85 ad 92 3d 90 7a 4f 3d
       -0.11091602 0.16438083 0.071620025 0.050653994
000180 72 c8 e3 3e 0b a5 bb 3b 48 48 13 be d4 ee bd bc
       0.44488865 0.0057264618 -0.14383042 -0.023185171
000190 a4 86 34 be 3e 96 8b 3c d7 e3 c7 bc da da e9 3d
       -0.17629486 0.017039414 -0.024400635 0.11418696
0001a0 21 cd b6 bc 25 04 38 3d 02 d4 8a 3d 2a 57 04 3e
       -0.02231461 0.044925828 0.067787185 0.12923875
0001b0 b4 84 84 3d 26 d8 66 be cf a1 91 bd 41 18 ca 3c
       0.064706236 -0.22543392 -0.07110941 0.024669768
0001c0 ec aa 82 be bd a3 65 bc d9 81 2f be 1e b1 63 3d
       -0.25521028 -0.014016089 -0.17139377 0.055588834
0001d0 46 5d 64 3d 83 67 75 bd 70 fa 4e bd 77 b0 c1 bd
       0.055753015 -0.05991317 -0.050531805 -0.09457486
0001e0 c9 45 3f bd a5 5e 20 bd 35 4a e0 3d b3 60 3e 3d
       -0.04669741 -0.03915276 0.10951654 0.04647894
0001f0 3a 6f 9d bd 6b 87 3e bd 18 5d e3 3c eb 1f c5 3d
       -0.076872304 -0.046515863 0.027754351 0.096252285
000200 ad e8 3d 3d c9 62 01 3e ce 6d ab 3c 18 81 2f 3d
       0.046364475 0.1263534 0.020926382 0.042847723
000210 c7 0f 0f 3e f0 ce a7 3e 9b da c1 bc 3e 78 8a 3d
       0.13970862 0.32775068 -0.02366381 0.067612156
000220 3c 5f f8 3d 29 43 ec 3d 38 e3 9b 3c 75 6f c8 3e
       0.121275395 0.11536247 0.019029245 0.39147535
000230 32 27 e7 bd 62 8c 96 bd b0 b6 b5 bd a7 82 98 be
       -0.11286773 -0.07350995 -0.088727355 -0.2978718
000240 14 17 42 be bf fa 36 bc 10 6e c2 3d aa 47 bf bd
       -0.18954116 -0.011168181 0.09493649 -0.09339841
000250 f5 f1 17 bd e3 ab c4 3d 53 16 83 be 93 53 60 bd
       -0.037095983 0.09603097 -0.2560297 -0.054767203
000260 55 b7 b8 3d ed c0 99 3d 29 a6 6f bd d7 26 ff 3d
       0.09019343 0.07507501 -0.058508072 0.1245858
000270 cf a9 79 3c 84 33 b1 3d 26 0e 0b 3e ec 84 ac be
       0.015238239 0.08652404 0.13579616 -0.3369516
000280 dd 56 2e 3c e5 29 68 bc bc 31 45 3a 22 8a db 3c
       0.010640827 -0.014170145 0.00075223646 0.026799265
000290 50 18 16 3e 41 81 8d 3d a5 48 dc bd 63 85 30 be
       0.14657712 0.06909419 -0.10756043 -0.17238383
0002a0 06 2b 90 3e cb 26 4a be 0e 90 87 3c 31 59 aa be
       0.28157824 -0.19741361 0.016548183 -0.33271173
0002b0 ae ba 43 3d 57 c3 af 3d 78 af c3 bc 50 b1 7d bd
       0.047785453 0.0858218 -0.023887381 -0.061936677
0002c0 12 32 d6 bd 5f 49 41 3e 38 b5 84 3c 69 ff 43 be
       -0.10458769 0.18875645 0.016199693 -0.191404
0002d0 21 58 32 3d fb 4e 12 3d b1 6f 5b be fa 97 96 be
       0.043541078 0.035719853 -0.21429326 -0.29412824
0002e0 96 09 99 3d eb 9a 24 3b 28 09 cd 3c 0c c8 80 3e
       0.074725315 0.0025116752 0.02502878 0.25152624
0002f0 0f 1a cc bb 5c 81 e0 3d 9c 1f d0 bd 1f ce 6d bd
       -0.0062286924 0.10962173 -0.10162279 -0.0580579
000300 ef 1b c2 bb 06 72 60 3e 47 d2 63 be 3d 03 41 be
       -0.00592374 0.21918496 -0.22248183 -0.18848892
000310 ef 37 6a 3d be 44 55 3d 88 d6 f8 bd 9b f7 a0 3c
       0.05718225 0.05206751 -0.121502936 0.019649317
000320 f2 ec 18 3e ed 3f 3d be 00 57 5f bb 55 d4 f1 3d
       0.14934137 -0.18481417 -0.0034078956 0.11808077
000330 8a 84 19 3e 0b 76 63 be d8 3c 80 3e c2 0b fb bb
       0.14991966 -0.22212999 0.2504642 -0.0076613137
000340 25 95 4a 3e 2b 14 0f be ef 86 73 bd c5 ed 72 3d
       0.19783457 -0.13972537 -0.059454855 0.059308786
000350 97 a5 0e 3e d6 2d 9e bc 94 6a 82 3e d9 a3 b4 bb
       0.13930355 -0.019308966 0.25471938 -0.005512696
000360 ee 4f 42 be cc 1b 46 3d 60 27 c7 bd 37 f9 eb 3d
       -0.18975803 0.048366353 -0.09724307 0.11522143
000370 5d 00 2e 3e 5a b6 e1 3c cb 17 06 bc d7 6d 7d 3d
       0.16992326 0.027552772 -0.008184384 0.06187233
000380 20 af 88 3d 66 ea ac 3d ab ea ea bc 55 b4 2a be
       0.066740274 0.084431455 -0.028676352 -0.16670354
000390 5f 99 9b be eb d7 75 be 7a a8 be bc 62 dd 9c bd
       -0.3039045 -0.24008147 -0.023273695 -0.07659413
0003a0 3d b0 16 3d 37 d0 75 3e 48 30 06 be fe 6d b5 3d
       0.036789168 0.24005209 -0.13104355 0.0885887
0003b0 71 ab f3 3d 84 e6 f8 3d 9b b6 a2 bd 31 82 c1 be
       0.11897934 0.12153342 -0.079449855 -0.3779464
0003c0 38 25 1c bd c8 67 18 3d b3 24 79 3e a5 1a 0d 3e
       -0.038121432 0.03720835 0.24330406 0.13779695
0003d0 a0 98 09 be 3c 7b 2f be d5 8d 21 3d 87 ff fa bb
       -0.13437128 -0.17136854 0.039441902 -0.0076598558
0003e0 36 34 b1 3d ac fb 9c 3e 42 ca 65 bd 32 e0 bf bd
       0.086525366 0.3066076 -0.05610109 -0.09368934
0003f0 4f 53 67 be b2 55 af bd c6 6d 1d bc 5a c5 df 3c
       -0.22590373 -0.08561267 -0.009608692 0.027315784

bias f4 [64]
000000 e8 da 40 3d 8a 48 cc 3c 3c c7 83 bc 06 e2 60 bd
       0.047083765 0.024936933 -0.016086213 -0.054903053
000010 47 cd 2d 3d e1 a5 10 3d a1 4b 79 be ed 69 05 bd
       0.042432096 0.035314444 -0.24345256 -0.03257172
000020 26 b2 00 3e 9f aa 2a bc 5d 53 87 bd 4a 07 fb bd
       0.12567958 -0.010416656 -0.06607697 -0.1225725
000030 46 32 b8 3c eb c7 78 bb 66 15 71 be 4b 55 d5 bc
       0.02248491 -0.0037960957 -0.23543319 -0.026041647
000040 1e de 14 be 5f fe b4 bb 78 cb 14 bd 4c 51 43 be
       -0.14537856 -0.0055234875 -0.036326855 -0.19073981
000050 2d e7 4f 3c 64 3a d9 3c 67 a3 27 3e 64 8b 9d 3d
       0.012689394 0.0265171 0.16370927 0.07692602
000060 a7 0d 8f 3d 77 52 a6 bd f0 81 1d 3d 98 b5 a8 3d
       0.06985026 -0.08121198 0.038453996 0.08237761
000070 e7 ec 3d 3e d7 31 19 3d aa 38 a1 bc e9 df 89 3d
       0.18547402 0.037401047 -0.01968034 0.067321606
000080 fd e8 98 3c fa 42 29 bd d5 71 3e bd fe 95 b3 bd
       0.018665785 -0.04132364 -0.046495277 -0.08768843
000090 37 1c d1 bd 65 37 76 bc 26 f3 53 bd 16 b8 b8 bd
       -0.1021046 -0.0150278555 -0.051745556 -0.090194866
0000a0 ca 5d 10 3e 12 72 df 3c be 2e 49 bd 47 95 64 3d
       0.14098278 0.027276073 -0.049116842 0.055806424
0000b0 e7 6e 95 bc 9d 83 15 3c ec 38 2f 3d 39 45 bb 3d
       -0.018241359 0.009125617 0.042778894 0.091440625
0000c0 40 8c 07 bd cc 16 5a 3e cd db 05 bd 94 88 96 3b
       -0.033092737 0.21297759 -0.03268032 0.004593918
0000d0 d1 0e b7 3d 01 0e c5 3d c5 98 b7 3d 34 eb b1 3c
       0.08938373 0.09621812 0.08964685 0.021718599
0000e0 d1 9f 8a bc 1b 6d 2a 3d 6c 1e 6b 3d da 34 0c 3e
       -0.01692191 0.041607957 0.05740206 0.13692036
0000f0 7f 5f 9a 3c cc 14 c8 bd 65 41 fa 3d ed d7 d7 bd
       0.018844364 -0.09769592 0.12219504 -0.105392314

weight f4 [2, 64]
000000 d4 12 cf 3d ba 6f 85 be a8 32 5a 3e 91 50 5a 3e
       0.10111013 -0.26061803 0.21308386 0.21319796
000010 f8 70 e2 bd aa ee 99 3d 2c a1 86 3c 65 1b b9 3d
       -0.11056703 0.07516225 0.016434275 0.09038428
000020 3b 9a f9 3d b7 aa 8b bd c8 5a 98 be 13 fa 3f be
       0.1218762 -0.06819671 -0.2975676 -0.1874774
000030 31 fb 53 3e d0 89 7c be 60 a1 ec 3d d1 f5 e3 3d
       0.2070129 -0.24661946 0.11554217 0.1113087
000040 3f 57 c1 bd f1 1e ac be 71 ca be 3d 63 cb a2 3d
       -0.09440469 -0.33617356 0.093159564 0.07948949
000050 84 09 8e be c4 cb 6e 3e cd 2f b7 bd 0f 2c 5c be
       -0.27741635 0.23319918 -0.08944664 -0.21501182
000060 92 61 47 bc e1 21 81 be 7b e0 38 3c 2b 00 5f 3c
       -0.012169259 -0.2522116 0.011283989 0.01361088
000070 49 1d 30 be c4 59 5f be 23 b9 4f 3e d2 23 86 3d
       -0.17198671 -0.21811587 0.20285468 0.06549801
000080 f1 95 c7 3e 73 59 70 3d e5 17 54 3d fc b3 78 be
       0.38981584 0.058679055 0.0517806 -0.24287409
000090 95 7c d4 bc 53 8e ea 3d 16 73 e6 3d e5 0f 51 be
       -0.025938312 0.114529274 0.1125242 -0.2041622
0000a0 0a 68 a9 3d 36 ab 68 3e ea 2b c6 bd 1a cc 6c 3e
       0.08271797 0.22721562 -0.09676345 0.23124734
0000b0 27 06 18 be 96 b1 8d 3e fc 27 52 3e 3c 7b a2 bd
       -0.14846097 0.2767455 0.20523065 -0.07933661
0000c0 46 1b 80 be c7 88 e2 3d 2b 23 10 be 08 e0 39 3e
       -0.25020808 0.110612445 -0.14075916 0.18151867
0000d0 c1 dc 89 3e 4a b4 57 bc 7c 80 91 3d 2a af 21 3d
       0.26926234 -0.013165543 0.071045846 0.03947369
0000e0 29 3f c7 be f2 6f 57 be 7e ad 95 be 83 f3 4a 3e
       -0.38915375 -0.21038797 -0.29233927 0.19819455
0000f0 15 75 9a be d7 ae 3b 3e 76 05 5b bc d5 15 6d 3e
       -0.30167452 0.18328415 -0.013368001 0.2315286
000100 f4 46 d2 bc c0 c8 69 3e 3c 0f 31 bd 37 ff fe bc
       -0.025668599 0.22830486 -0.04322742 -0.031127555
000110 53 0c 85 3e cd 1e 48 bc da e7 34 3d 89 4a ef bd
       0.25985965 -0.012214375 0.044166423 -0.11684138
000120 42 b9 94 bd 22 34 bc 3d 94 5b 85 3e d6 76 10 3e
       -0.072618976 0.09189631 0.2604643 0.14107832
000130 44 1e 82 be 66 67 c4 3d eb 53 7d 3d 97 72 b6 bc
       -0.25413716 0.09590034 0.06184761 -0.022271438
000140 65 5d ec 3d 04 76 3b 3e 66 2e a0 bc 5c ee 18 3e
       0.11541251 0.18306738 -0.019553374 0.14934677
000150 f2 3a 9d 3d ef 78 81 be ba 23 4c bd 2b cf 0c 3e
       0.076772586 -0.25287578 -0.04983876 0.13750903
000160 5d dd 8c 3d c3 c1 92 3e 82 3d c9 3c 3f 4b 26 bb
       0.06878159 0.28663453 0.024565462 -0.002537444
000170 1d e6 a0 3e 2a 5f 5f 3d 8c 58 f6 bd b6 41 58 be
       0.31425563 0.054534115 -0.12028608 -0.21118817
000180 16 5b 96 be c5 cb e6 bd ae bf 45 be 8d cc 6f 3e
       -0.29366368 -0.11269335 -0.19311401 0.23417874
000190 bf 39 39 3e c9 83 8c be 7e 46 37 be 66 eb 1c 3e
       0.18088435 -0.27444294 -0.17897984 0.15324172
0001a0 2e 04 e6 bc 34 b1 dc bd 86 a3 9d 3d 59 e6 47 be
       -0.028078165 -0.10775986 0.07697205 -0.19521464
0001b0 50 4b 71 3e 53 36 6a be af 43 4c be cc 3d 3d 3e
       0.23563886 -0.22872286 -0.19947694 0.18480605
0001c0 4f 91 68 3e 8e a4 f1 bd 13 0f 40 3e dd 67 2a be
       0.22711681 -0.117989644 0.1875575 -0.16641183
0001d0 99 1b 60 be 8a b8 0f 3e eb 1e cc 3d 32 64 29 be
       -0.21885528 0.1403524 0.09966835 -0.16542128
0001e0 12 4e aa 3e 12 a6 4d 3e 4b 3e a2 3e 99 82 4b be
       0.33262688 0.20082882 0.3168815 -0.19874038
0001f0 8f fb c1 3e ff f9 88 be fb 69 12 3e 73 7b b9 bd
       0.37887236 -0.26753232 0.14298241 -0.09056749

bias f4 [2]
000000 06 d4 98 bd 3d 8b c9 3d
       -0.07462315 0.09841011
