ex3/GRU_64.pth (torch, 131344 bytes, 8 tensors)

weight f4 [64, 164]
0	0x3d869aae	0.065724716
1	0xbe7f3a42	-0.24924567
2	0x3caebb05	0.021329412
3	0xbc7b8b8b	-0.015353094
4	0xbebd6590	-0.3699155
5	0xbe8e94fc	-0.2784804
6	0xbe0112b2	-0.12604788
7	0x3cb723e5	0.022355983
8	0xbd1e0cc2	-0.038586386
9	0x3eb89461	0.36050704
10	0x3db7badf	0.0897119
11	0x3c8c1916	0.017101806
12	0x3e277e82	0.16356853
13	0xbd508def	-0.05091661
14	0x3ad297ea	0.0016067002
15	0xbd1ff417	-0.03905114
16	0xbe839b62	-0.25704485
17	0x3d7750e1	0.060379867
18	0x3ea1c0a5	0.3159229
19	0x3d80c93d	0.06288383
20	0x3bdbdc07	0.006709579
21	0x3e71d046	0.23614606
22	0x3e6845ee	0.22682926
23	0xbe2bb474	-0.16768056
24	0x3e17dd49	0.14830507
25	0xbccff825	-0.02538688
26	0x3e223c0a	0.15843216
27	0xbcb9a46a	-0.022661407
28	0x3de2482b	0.11048921
29	0x3ddf021a	0.10889073
30	0xbedb5f30	-0.4284606
31	0x3e40a742	0.18813804
32	0xbdc85328	-0.09781486
33	0xbe719a21	-0.23593952
34	0x3dbf48c7	0.09340053
35	0x3e37b4cc	0.17940062
36	0xbd46eafe	-0.04856395
37	0x3ed73955	0.42035928
38	0xbdd25bfc	-0.10271451
39	0xbe3789c4	-0.17923647
40	0xbe876f00	-0.26451874
41	0x3d7cbd53	0.06170399
42	0x3da297b1	0.07939089
43	0x3d873f97	0.06603926
44	0xbe0e535a	-0.13898984
45	0x3a0374ec	0.0005014676
46	0xbe9eca30	-0.31013632
47	0x3ce914b8	0.028452262
48	0x3cbe2dc5	0.023215184
49	0xbe5965fb	-0.21230309
50	0x3e49d10d	0.19708653
51	0xbd6a8171	-0.05725235
52	0xbd2b2d6f	-0.041791376
53	0xbd8bbca3	-0.06823089
54	0x3e6ec016	0.23315462
55	0xbeb87bdb	-0.36031994
56	0xbe56d043	-0.20977883
57	0x3d7e0ea5	0.062025685
58	0x3e150a2b	0.1455466
59	0xbcf98ea3	-0.030463522
60	0xbd97ab9f	-0.07405781
61	0x3db3a146	0.08770995
62	0x3dbbf092	0.091767445
63	0x3e485df3	0.19567089
64	0x3e77580c	0.24154681
65	0xbef77e5e	-0.48338598
66	0xbcd6aa37	-0.026204212
67	0x3e38a02f	0.18029855
68	0xbe1d6270	-0.15369582
69	0x3ed27dbf	0.41111562
70	0x3eba9f70	0.36449766
71	0x3edf25d8	0.4358356
72	0xbd94049d	-0.072274424
73	0x3eba4f6d	0.36388722
74	0x3e11cd95	0.1423858
75	0x3f32d16a	0.6985079
76	0x3ea47659	0.32121542
77	0x3ea87d30	0.3290801
78	0x3de5823f	0.11206483
79	0xbdb5c7c8	-0.08875996
80	0x3eb58064	0.35449517
81	0x3e41e25e	0.18934008
82	0xbeadda3c	-0.33955562
83	0xbe1f0690	-0.15529847
84	0x3e746ec8	0.23870385
85	0x3e6b9079	0.2300433
86	0x3dc1a5f5	0.09455482
87	0xbe0d57ba	-0.13802996
88	0xbcd3ebd0	-0.02586928
89	0x3e080966	0.13284835
90	0x3eb144ed	0.346229
91	0x3ddd2395	0.10797802
92	0x3f272460	0.6528988
93	0xbdfd7b78	-0.123770654
94	0x3dfed43b	0.124428235
95	0xbdb94055	-0.090454735
96	0x3dea6202	0.11444475
97	0xbe18b5ab	-0.14913051
98	0xbe1412fd	-0.14460368
99	0x3dc0ebd0	0.09419978
100	0xbe22ddd0	-0.15904927
101	0x3de9c1d6	0.114139244
102	0xbeafdee6	-0.34349746
103	0x3d7e4676	0.062078916
104	0xbe7a2130	-0.24426723
105	0x3e71ab02	0.2360039
106	0xbcee6c58	-0.029104397
107	0x3d0d4c8b	0.034496825
108	0x3f043d0e	0.5165566
109	0x3e496ba1	0.19669963
110	0x3df6d19b	0.12051698
111	0xbe27498f	-0.16336654
112	0xbea98da9	-0.3311589
113	0xbe7b1a47	-0.24521743
114	0x3d1bb2ff	0.0380125
115	0xbc26ca79	-0.010180109
116	0xbd36274d	-0.044471074
117	0x3e49a05b	0.19690077
118	0xbdcd2c58	-0.100182235
119	0xbe272535	-0.16322787
120	0xbeabf16b	-0.33582625
121	0xbdea7081	-0.1144724
122	0x3e92846f	0.28616664
123	0x3cbe8e67	0.023261262
124	0xbdb17a6c	-0.08665928
125	0xbdf15bfe	-0.11785124
126	0xbeed5ffd	-0.46362296
127	0xbd3205f5	-0.043462712
128	0x3e805015	0.25061098
129	0x3e9268f9	0.28595713
130	0xbe6b6487	-0.22987567
131	0xbc3e2376	-0.011605134
132	0xbe4d46db	-0.2004656
133	0x3db45fae	0.08807312
134	0xbec08ffd	-0.37609854
135	0xbd4f9358	-0.050677627
136	0xbe4a439c	-0.19752353
137	0x3e91271a	0.28350145
138	0xbeceda0b	-0.4040073
139	0x3eaea465	0.34109798
140	0xbd80153a	-0.06254049
141	0x3ea1334b	0.31484446
142	0xbe05bbab	-0.13059871
143	0x3e988a2b	0.29792914
144	0xbe5e0a16	-0.21683535
145	0x3e19ddff	0.15026091
146	0xbe0ca821	-0.13736011
147	0x3e887569	0.26652077
148	0xbd68919e	-0.056779496
149	0x3d73853d	0.059453238
150	0x3c58c0ea	0.013229588
151	0xbd68c2a2	-0.05682624
152	0x3e05ed9b	0.1307892
153	0x3e4e9429	0.20173706
154	0xbe7b0611	-0.24514033
155	0x3d8a387f	0.06749057
156	0x3d6f5dde	0.058439128
157	0x3ee259a5	0.44209018
158	0x3ceaf005	0.028678903
159	0xbdfc84a6	-0.12329988
160	0x3edf7baa	0.43649036
161	0xbce4fc8a	-0.027952451
162	0x3e7d6c1f	0.24748276
163	0xbeb11630	-0.3458724
164	0xbf0de698	-0.55429983
165	0x3d033455	0.03203233
166	0xbe5b1971	-0.21396424
167	0xbe6db0fe	-0.23212048
168	0xbd4e1cca	-0.050320424
169	0xbe945044	-0.28967488
170	0xbecf4ce3	-0.40488347
171	0x3e9e4bc1	0.3091717
172	0xbd1aedd2	-0.03782446
173	0x3e1c1e12	0.15245846
174	0xbdd37543	-0.103251
175	0x3de0d810	0.10978711
176	0xbeb5f277	-0.35536548
177	0xbd90be6a	-0.070675686
178	0xbf09ac92	-0.53778946
179	0x3e940158	0.28907275
180	0xbea4db43	-0.32198533
181	0xbdf19b6e	-0.11797224
182	0xbd9771e5	-0.073947705
183	0xbe5fb3fc	-0.21846002
184	0x3e0965da	0.1341776
185	0xbdfb009a	-0.12255974
186	0xbe2204af	-0.15822099
187	0xbda9efb2	-0.082976714
188	0x3e2a66e3	0.1664081
189	0x3df3ed0f	0.1191045
190	0x3e7f16bb	0.24911015
191	0xbe42d455	-0.1902631
192	0x3e90ad37	0.28257152
193	0xbc6291ab	-0.013828675
194	0xbef03b1e	-0.46920103
195	0xbdcfdfb1	-0.101500876
196	0x3e50092f	0.20316003
197	0xbe70d64e	-0.23519251
198	0x3ebeeb73	0.37289008
199	0x3e88dd82	0.26731497
200	0x3e8de4c3	0.27713594
201	0x3e218737	0.15774237
202	0xbe18f90f	-0.14938758
203	0xbe4fbfeb	-0.20288055
204	0x3f413603	0.7547304
205	0x3ecff807	0.40618917
206	0xbf435858	-0.76306677
207	0x3f09a49e	0.5376681
208	0xbdad0379	-0.08447928
209	0x3c818f7d	0.01581549
210	0xbeffb3ae	-0.49941772
211	0xbed2af9a	-0.41149598
212	0xbe0b04f9	-0.13576116
213	0x3db5fa8b	0.08885678
214	0x3e7c12e3	0.2461658
215	0x3b992b53	0.004674354
216	0xbdfe033a	-0.12402959
217	0xbec2755f	-0.37980172
218	0x3e41aae4	0.18912846
219	0x3e368432	0.17823866
220	0xbd9a8667	-0.075451665
221	0xbe90e272	-0.28297764
222	0x3da7507b	0.08169647
223	0xbd395034	-0.045242503
224	0xbe68fb02	-0.22752002
225	0xbe8fee81	-0.28111652
226	0xbf20a8b2	-0.6275741
227	0x3f12ecdb	0.5739266
228	0xbd8fcc41	-0.0702138
229	0x3e101dc2	0.14073852
230	0xbde19a85	-0.110158004
231	0x3e940428	0.2890942
232	0x3d5cae5b	0.053877216
233	0xbe196134	-0.14978486
234	0x3eb15d1d	0.34641352
235	0xbe379d00	-0.17930984
236	0x3d27511e	0.040848844
237	0x3d92e850	0.07173216
238	0x3ef24104	0.47315228
239	0x3e50c097	0.20385967
240	0xbe3cb13b	-0.18426983
241	0xbe8e6717	-0.27813026
242	0xbea65d4a	-0.3249305
243	0xbdc23073	-0.09481897
244	0xbe04a7fe	-0.12954709
245	0x3e914eef	0.28380534
246	0xbe8df5df	-0.27726647
247	0x3dc34051	0.09533752
248	0x3e45470c	0.19265383
249	0x3d30c4ae	0.04315632
250	0x3ae3ffb5	0.0017394932
251	0xbe672374	-0.22572118
252	0xbe2ce838	-0.1688546
253	0xbdcb385c	-0.09922859
254	0xbf03a82c	-0.51428485
255	0x3ee08bd9	0.43856695

bias f4 [64]
0	0xbdccade2	-0.09994103
1	0xbf1a528a	-0.60282195
2	0xbef9a6fe	-0.48760217
3	0xbdb02f0d	-0.08602724
4	0xbe7b21de	-0.24524638
5	0xbe84eb56	-0.25960797
6	0xbec4a5a8	-0.38407636
7	0xbe707278	-0.23481166
8	0xbf070d31	-0.52754503
9	0xbcec3115	-0.028831998
10	0xbee6ab54	-0.45052588
11	0xbeddf73f	-0.43352696
12	0xbe539fd9	-0.20666446
13	0xbebd64f1	-0.36991075
14	0xbdd3c849	-0.10340936
15	0xbe8ad10b	-0.27112612
16	0xbea5c5f9	-0.32377604
17	0xbd5d6e2c	-0.054060146
18	0xbe5bf3f1	-0.21479775
19	0xbed8fd40	-0.42380714
20	0x3d4310de	0.047623508
21	0xbee2960b	-0.442551
22	0xbe9ab274	-0.30214274
23	0xbe9e33b7	-0.3089883
24	0xbe01741c	-0.12641948
25	0x3d832e05	0.06405262
26	0x3da3c4d7	0.079965286
27	0xbe9affad	-0.3027319
28	0x3dd9658d	0.106150724
29	0xbe894176	-0.26807755
30	0xbd906ef7	-0.07052415
31	0xbeff13fe	-0.4981994
32	0xbefffbbf	-0.49996755
33	0xbd00a8fb	-0.031411152
34	0xbe8a91ba	-0.27064306
35	0xbd97ec34	-0.07418099
36	0xbe8303e4	-0.25588906
37	0xbdae9b94	-0.08525768
38	0x3e24549b	0.160479
39	0xbe31088f	-0.17288421
40	0x3e0e9fdc	0.13928169
41	0xbcd75444	-0.026285298
42	0x3d8606e4	0.06544283
43	0x3c290358	0.010315739
44	0xbdf6e2e6	-0.12054996
45	0xbdc43c96	-0.09581868
46	0xbacea60b	-0.0015766037
47	0xbe10bee0	-0.14135313
48	0x3b5b09d3	0.0033422604
49	0xbef21552	-0.4728189
50	0xbf0c7776	-0.5486978
51	0xbde70400	-0.1128006
52	0xbe18f67a	-0.14937773
53	0xbf0909f7	-0.5353083
54	0xbe7a8dea	-0.24468198
55	0xbf1550e4	-0.58326554
56	0xbe84bce4	-0.25925362
57	0xbe6dadce	-0.23210832
58	0xbee1e897	-0.44122764
59	0xbf03c49c	-0.5147188
60	0xbe83227c	-0.25612247
61	0xbed3d341	-0.4137211
62	0xbd360689	-0.044439826
63	0x3c895370	0.016763419

weight f4 [64, 164]
0	0xbe1cf627	-0.15328275
1	0xbe09a99d	-0.13443609
2	0x3eab50af	0.33459994
3	0xbe332e81	-0.17498209
4	0x3d82c18e	0.06384574
5	0xbe5ac5a0	-0.2136445
6	0x3d265526	0.040608548
7	0x3d921510	0.071329236
8	0xbc97eedb	-0.018546512
9	0xbd06003c	-0.032715067
10	0x3d4ac755	0.049506504
11	0x3cb6f95a	0.022335697
12	0xbe657c92	-0.22410801
13	0xbe06c288	-0.13160145
14	0x3c9d5f48	0.019210473
15	0x3e301fc6	0.1719962
16	0xbdd3cc26	-0.103416726
17	0x3e158bd6	0.14604124
18	0xbd0a9ee8	-0.03384295
19	0xbb4b7cec	-0.00310498
20	0x3eaf4667	0.342334
21	0xbe084cb0	-0.13310504
22	0xbddd3d6c	-0.10802731
23	0x3d2ff5c1	0.04295898
24	0x3e47faac	0.19529217
25	0x3d207e65	0.03918304
26	0x3d623ee4	0.05523576
27	0xbc4a3d55	-0.012343724
28	0x3e58a90d	0.21158238
29	0x3dd05ed2	0.101743355
30	0xbe5e9695	-0.2173713
31	0xbc8b666e	-0.017016616
32	0x3d4f1655	0.050558407
33	0x3da8d544	0.08243802
34	0x3c9db7dc	0.01925271
35	0x3debeae7	0.115194134
36	0x3e1bec78	0.15226924
37	0x3e3e04fc	0.18556589
38	0xbec5a7cd	-0.38604584
39	0x3e3d5c4e	0.18492243
40	0x3eb04c01	0.34432986
41	0x3d71f1f7	0.059068646
42	0xbdeb33b4	-0.11484471
43	0x3e5380c7	0.20654593
44	0x3e280260	0.16407156
45	0x3d8e25cb	0.06940802
46	0xbb921de0	-0.004459128
47	0xbdcab1f4	-0.09897223
48	0x3cc80d2c	0.024420343
49	0x3e04690f	0.12930702
50	0xbd292020	-0.041290402
51	0xbd3208fa	-0.043465592
52	0xbe5c662e	-0.21523353
53	0xbd635e10	-0.055509627
54	0x3d52c2cb	0.0514553
55	0x3ddb0c71	0.106957324
56	0x3e00d99a	0.12583008
57	0xbd8a9db7	-0.06768363
58	0x3d690d08	0.056897193
59	0xbe19cf6b	-0.1502053
60	0x3a111ac9	0.00055353023
61	0xbdf03e3b	-0.117306195
62	0xbd909666	-0.07059936
63	0x3e5be265	0.21473081
64	0xbe3ab1be	-0.18231866
65	0x3bd81430	0.0065942034
66	0xbda26dfe	-0.079311356
67	0x3e09735b	0.13422911
68	0x3d98d1f4	0.074619204
69	0xbe81830a	-0.25295287
70	0x3d9b1bed	0.07573686
71	0xbe521e5a	-0.2051939
72	0xbd168787	-0.036750343
73	0xbda66563	-0.08124807
74	0xbe126d9e	-0.14299628
75	0xbe7e6be1	-0.2484584
76	0xbe7a317c	-0.2443294
77	0xbec855aa	-0.39127856
78	0xbda6f896	-0.08152883
79	0xbd6a5fce	-0.057220273
80	0xbe3b714f	-0.18304943
81	0xbc4dc960	-0.012560219
82	0xbb3ac25e	-0.00284972
83	0xbe03f889	-0.12887777
84	0xbe2391fc	-0.15973657
85	0x3d99a033	0.07501259
86	0xbda310ed	-0.07962213
87	0x3d90edd0	0.07076609
88	0xbea73fa8	-0.32665753
89	0xbe76bb24	-0.24094826
90	0xbe025bee	-0.12730381
91	0xbd5a1340	-0.053241014
92	0xbc00c998	-0.007860564
93	0x3e2f536c	0.17121667
94	0x3d134f8a	0.035964526
95	0xbdbd3faf	-0.09240662
96	0x3da3c622	0.07996775
97	0xbcc9047c	-0.024538271
98	0xbdd40c18	-0.10353869
99	0xbe9f2ef9	-0.31090525
100	0xbdc9ec5b	-0.09859534
101	0x3e5c5236	0.21515736
102	0x3e6f53ff	0.23371886
103	0x3e0c2496	0.13685831
104	0x3e857503	0.26065835
105	0xbddf0281	-0.108891495
106	0x3ec7339c	0.38906562
107	0xbe7c19ad	-0.2461917
108	0xbe8bf362	-0.27334124
109	0x3d656b80	0.056010723
110	0x3e3a97c9	0.18221964
111	0x3dd5b6a3	0.10435226
112	0x3e18a1fe	0.14905545
113	0x3d9fc898	0.07801932
114	0x3e3a9abd	0.1822309
115	0x3bcc1b4e	0.006228841
116	0x3c23919b	0.0099834455
117	0xbe13eb9d	-0.14445348
118	0xbbdde0c1	-0.0067711775
119	0x3e25fe53	0.16210298
120	0x3e6310c7	0.22174369
121	0xbe102e73	-0.14080219
122	0xbdabb117	-0.083833866
123	0xbe309290	-0.17243409
124	0xbdcca89e	-0.09993099
125	0xbcf3b14d	-0.02974763
126	0x3e324fe7	0.17413293
127	0xbea1564e	-0.31511158
128	0xbe07768d	-0.13228817
129	0x3e666423	0.22499137
130	0x3c271b02	0.01019931
131	0xbe75ff95	-0.24023278
132	0xbdb942d7	-0.09045952
133	0xbe7ca029	-0.24670471
134	0x3eb1c4d6	0.34720486
135	0x3e141549	0.14461245
136	0x3c4c2ef6	0.012462368
137	0xbd6fab7a	-0.058513142
138	0x3d739eb9	0.05947754
139	0xbe1e31e7	-0.15448724
140	0x3e97c481	0.29642108
141	0x3deb9d20	0.115045786
142	0x3a08dce9	0.00052209065
143	0xbc219057	-0.009861073
144	0x3e30232f	0.17200921
145	0xbb37ebd8	-0.0028064158
146	0x3e26dc16	0.16294894
147	0xbae5a787	-0.001752124
148	0x3e237fe2	0.15966752
149	0x3e1acf12	0.15118054
150	0xbe047fe9	-0.12939419
151	0xbe4c8be0	-0.19975233
152	0x3dc3ad9e	0.09554599
153	0x3dacaa27	0.084308915
154	0x3ebab843	0.36468706
155	0x3e61aba7	0.22038136
156	0x3dbd701b	0.09249898
157	0xbd9271f9	-0.07150645
158	0x3e5c8aa4	0.21537262
159	0x3e0b517e	0.13605306
160	0xbe28d612	-0.16487911
161	0x3e21cba9	0.15800346
162	0xbe0c789d	-0.13717885
163	0xbce2420a	-0.02761938
164	0x3dd84e73	0.10561838
165	0x3cc789d7	0.02435772
166	0x3df556e1	0.119794615
167	0xbd859aca	-0.06523664
168	0xbdb90948	-0.090349734
169	0x3e5ea02b	0.21740787
170	0x3e9c14b7	0.30484554
171	0xbdf9e866	-0.122025296
172	0x3e61d814	0.22055084
173	0xbd5f8a1e	-0.05457508
174	0xbd8fc55d	-0.07020066
175	0x3e1567b9	0.14590348
176	0x3e133962	0.14377359
177	0x3e303fb2	0.17211798
178	0xbdb9f70f	-0.09080326
179	0xbdab777d	-0.083724
180	0x3d8c78ed	0.06859002
181	0x3d131077	0.035904374
182	0xbdc1f00b	-0.09469613
183	0x3de94d42	0.11391689
184	0x3ceb7ec3	0.028746968
185	0x3d65e7e6	0.05612936
186	0x3cbd9aab	0.02314504
187	0x3d9271ac	0.071505874
188	0x3b50e891	0.0031876902
189	0xbd3625b6	-0.044469558
190	0x3dd4e9c9	0.103961535
191	0x3df85a02	0.12126543
192	0xbd85c6c9	-0.06532056
193	0x3d76012b	0.060059708
194	0xbcbd545b	-0.023111513
195	0xbd6aa2a2	-0.057284005
196	0xbe43cf2c	-0.19121999
197	0xbdbc0cc6	-0.09182124
198	0xbc1fdcc2	-0.009757223
199	0x3cd3f4c4	0.02587355
200	0xbce04bc1	-0.027379872
201	0xbe1e09e2	-0.15433457
202	0xbdb68d22	-0.08913638
203	0xbc5fcf27	-0.013660229
204	0xbe5e3db7	-0.2170323
205	0xbdadb2e3	-0.084813856
206	0x3e663c60	0.22483969
207	0xbe30f6ca	-0.17281643
208	0x3dcd5980	0.100268364
209	0x3d8b0054	0.06787172
210	0x3c1e4c4a	0.009661743
211	0x3e31cbc6	0.1736289
212	0x3d2f1c30	0.04275149
213	0xbafd0296	-0.0019303139
214	0xbdfc8398	-0.12329787
215	0x3ad98cc1	0.0016597734
216	0x3e06ee7c	0.13176912
217	0xbe90329f	-0.2816362
218	0xbc1f5d49	-0.009726831
219	0xbe1a37ab	-0.15060298
220	0xbdce7183	-0.100802444
221	0xbc5c0133	-0.01342802
222	0xbde66b12	-0.11250891
223	0xbe12426d	-0.14283152
224	0x3df8585d	0.12126229
225	0xbd126235	-0.03573819
226	0x3e25e25b	0.16199629
227	0xbd2822b9	-0.04104874
228	0xbe11d02b	-0.14239566
229	0x3d3b7080	0.045761585
230	0x3d191147	0.037369993
231	0xbdc91c0c	-0.09819803
232	0x3d869534	0.06571427
233	0x3d948265	0.07251433
234	0xbcaf9960	-0.02143544
235	0x3d25d1c5	0.040483255
236	0x3d7fb17c	0.06242512
237	0x3e37afe5	0.17938192
238	0x3e32d9d1	0.17465903
239	0xbe4159e2	-0.18881944
240	0xbeb9c96f	-0.36286494
241	0x3ea7fe95	0.32811418
242	0x3de3389f	0.11094784
243	0x3e049009	0.1294557
244	0x3de2032e	0.11035763
245	0xbe38c517	-0.18043934
246	0x3d8e571c	0.069502085
247	0x3e21a805	0.1578675
248	0x3c50e8ca	0.012750814
249	0x3e694d07	0.2278329
250	0x3e03bc28	0.12864745
251	0xbabe8664	-0.0014535901
252	0x3cdc0844	0.02685941
253	0x3af9ce94	0.0019058757
254	0xbcf26262	-0.029587928
255	0xbe9753f1	-0.2955623

bias f4 [64]
0	0xbd9b5037	-0.07583659
1	0x3b25c3e2	0.0025293757
2	0x3cfc434f	0.030793814
3	0xbd9f9252	-0.0779158
4	0xbd50f065	-0.051010508
5	0xbd2c2c74	-0.04203458
6	0xbd39add1	-0.04533178
7	0xbd48fd80	-0.04906988
8	0x3d29231e	0.041293256
9	0xbe361c71	-0.17784287
10	0x3c4f595c	0.012655582
11	0xbc5a205f	-0.013313382
12	0xbd8c60bc	-0.06854388
13	0x3a189631	0.000582072
14	0x3db2a941	0.08723689
15	0xbd0b0b9e	-0.033946626
16	0x3cd77a38	0.026303396
17	0x3c82bd19	0.01595931
18	0x3d14d952	0.036340065
19	0x3d9e3ea0	0.077267885
20	0xbc76d018	-0.015064262
21	0xbbdf3c03	-0.006812574
22	0xbdccc09b	-0.09997674
23	0x3d6f0440	0.058353662
24	0xbcd49485	-0.025949726
25	0x3d9f85ae	0.07789169
26	0x3d45e023	0.048309457
27	0xbd9d23bb	-0.07672831
28	0xbdfa5d17	-0.12224787
29	0xbdc3ed2c	-0.09566721
30	0xbbdb9ddc	-0.006702168
31	0x3d9b3a0f	0.07579433
32	0x3d9c4e29	0.07632095
33	0x3d94e2be	0.0726981
34	0xbb820755	-0.003968159
35	0xbda3d1e0	-0.07999015
36	0xbd1f46bd	-0.03888582
37	0xbd9cb013	-0.07650771
38	0x3db290e1	0.0871904
39	0xbd355aed	-0.044276167
40	0xbd8073cc	-0.062720865
41	0x3d5402ef	0.05176061
42	0x3d89577a	0.06706138
43	0xbd5f1274	-0.054460958
44	0xbd5b109c	-0.053482637
45	0xbdcde81d	-0.10054038
46	0xbd403d59	-0.046933506
47	0xbd48d182	-0.049027927
48	0x3ba8969b	0.0051449067
49	0x3cd8eba8	0.026479557
50	0x3d194ce3	0.03742684
51	0x3cc168a6	0.02360947
52	0xbc95808f	-0.018249778
53	0xbbb267dc	-0.00544451
54	0xbd0411a7	-0.032243397
55	0x3d900ca1	0.07033659
56	0x3d1e9c19	0.038723085
57	0xbd62d16c	-0.0553755
58	0xba3c36b6	-0.00071797834
59	0x3d8c5def	0.06853854
60	0xbd466812	-0.048439093
61	0x3decd7e8	0.11564618
62	0xbd5ced3c	-0.05393718
63	0xbc9a5a19	-0.01884179

weight f4 [64, 164]
0	0x3e1aaa5c	0.1510405
1	0xbca765ec	-0.020434342
2	0x3e990845	0.29889122
3	0x3e9cb364	0.30605614
4	0xbc077969	-0.0082686925
5	0xbe539032	-0.20660475
6	0x3e653bde	0.22386119
7	0xbeb9f429	-0.36319092
8	0x3d525f0f	0.051360186
9	0xbe565e93	-0.20934515
10	0x3d62e262	0.055391677
11	0xbe11f598	-0.14253843
12	0x3de488b3	0.11158886
13	0xbe07b751	-0.13253523
14	0x3ee08421	0.43850806
15	0xbe0623ef	-0.13099645
16	0x3e9ae96a	0.30256206
17	0xbd4b461f	-0.04962742
18	0x3e773912	0.24142864
19	0x3dc7f9da	0.09764452
20	0xbe8b4920	-0.27204227
21	0x3d882c1c	0.06649038
22	0x3dedbb05	0.11607937
23	0x3d729ee7	0.059233572
24	0xbe6d0891	-0.23147799
25	0xbe51af44	-0.20477015
26	0xbea0e2bc	-0.31422985
27	0x3c9d9877	0.01923774
28	0x3ebd1d16	0.36936253
29	0xbe8387f7	-0.2568967
30	0x3e78cabd	0.24296089
31	0x3e341e30	0.1758964
32	0xbd01134a	-0.031512536
33	0x3d20239b	0.039096456
34	0xbe8ba758	-0.2727611
35	0x3ea67097	0.32507774
36	0xbe07c583	-0.13258938
37	0x3e9ff6ae	0.3124289
38	0x3f068e97	0.52561325
39	0xbe0d3070	-0.13788009
40	0xbe29aab9	-0.16569032
41	0xbea480ac	-0.3212942
42	0x3e588a24	0.21146446
43	0xbe6ea834	-0.23306352
44	0xbdaee7b1	-0.085402854
45	0x3d1ee2ed	0.038790632
46	0x3e705d76	0.23473153
47	0x3e283498	0.16426313
48	0x3da54147	0.08069091
49	0xbcef6877	-0.029224617
50	0x3d9ef8c0	0.07762289
51	0xbd114365	-0.035464663
52	0x3d0b7e46	0.03405597
53	0x3da53438	0.080666006
54	0xbd3823af	-0.044955906
55	0xbccc33fe	-0.024927136
56	0xbd20d162	-0.039262183
57	0x3e3cbebc	0.18432134
58	0x3decdeba	0.11565919
59	0xbd1cba79	-0.03826377
60	0x3dbdc11d	0.09265349
61	0x3c42abf0	0.011881813
62	0xbe0d0ae1	-0.13773681
63	0xbee29789	-0.44256237
64	0xbd8ad73d	-0.06779335
65	0x3e81d139	0.25354937
66	0x3d9b04c0	0.07569265
67	0xbea7836d	-0.32717457
68	0x3d068475	0.032841165
69	0xbe35992e	-0.17734215
70	0xbe0cf8fb	-0.13766854
71	0x3d9aeab7	0.075642996
72	0x3ca06d02	0.019583229
73	0xbe34ebd4	-0.17668086
74	0xbe0770c0	-0.13226604
75	0xbe824468	-0.25442815
76	0x3d9b02b0	0.07568872
77	0x3a86cbe9	0.0010284159
78	0xbeca0acf	-0.3946137
79	0x3b140638	0.0022586714
80	0xbdc914c9	-0.098184176
81	0xbe3fd21b	-0.18732493
82	0x3c43a3a6	0.011940872
83	0x3e74c9cf	0.23905109
84	0x3ca53023	0.020164555
85	0xbe8d8fe9	-0.27648857
86	0x3dfe0787	0.124037795
87	0x3ea87524	0.3290187
88	0x3d0d9c71	0.034573022
89	0xbc96f055	-0.018425146
90	0x3d8e70cb	0.06955107
91	0xbc86c61e	-0.016451892
92	0xbd3a8c21	-0.045543794
93	0x3e313245	0.17304333
94	0xbe301fd7	-0.17199646
95	0x3d6af0aa	0.05735842
96	0xbebb1b69	-0.3654435
97	0x3e29cc6e	0.1658189
98	0x3d7b4c9a	0.06135235
99	0x3e85d968	0.2614243
100	0xbdd8af42	-0.10580303
101	0x3c8f3b7e	0.017484423
102	0xbe20ed96	-0.15715632
103	0xbe3cb8c1	-0.18429853
104	0x3e01c9e8	0.12674677
105	0xbcb0c7bd	-0.021579618
106	0xbea0895a	-0.3135479
107	0x3d505c28	0.050869137
108	0x3dd1b063	0.10238721
109	0x3d88a713	0.06672492
110	0xbd838a74	-0.06422892
111	0xbe3624f0	-0.17787528
112	0x3c762935	0.015024473
113	0xbcf9c7ae	-0.030490723
114	0x3db90ee3	0.090360425
115	0x3e432c96	0.19059977
116	0x3cbb3f5e	0.022857364
117	0x3dd2dbee	0.102958545
118	0x3da04c98	0.07827109
119	0x3cdb0ae8	0.026738599
120	0x3d9e731e	0.077368006
121	0x3e337802	0.17526248
122	0x3c762b1d	0.015024927
123	0x3d3c3782	0.045951374
124	0xbe751b38	-0.23936164
125	0x3e3290e8	0.1743809
126	0x3e7d9dc0	0.24767208
127	0xbe029150	-0.12750745
128	0x3d99ab38	0.075033605
129	0x3ce3b7dc	0.027797632
130	0x3d0c8235	0.034303863
131	0xbd218d65	-0.039441485
132	0x3e5eb971	0.21750428
133	0xbd9b9e29	-0.07598526
134	0xbde676c2	-0.1125312
135	0xbe08df42	-0.13366416
136	0x3e03e5da	0.1288065
137	0xbe4faa04	-0.202797
138	0x3e1aa1f5	0.15100844
139	0xbd7b22e4	-0.06131257
140	0x3e58a4fb	0.21156685
141	0xbe972ce3	-0.29526433
142	0xbe04c3b6	-0.12965283
143	0x3e390b84	0.18070799
144	0x3dd7ba60	0.10533595
145	0xbe8d317b	-0.27576813
146	0x3d1c6456	0.038181625
147	0xbe658c5f	-0.22416829
148	0x3cd8e3e6	0.026475858
149	0xbd54b08e	-0.05192619
150	0xbe953f32	-0.29149777
151	0x3e07e4e4	0.13270909
152	0x3a94cc86	0.0011352457
153	0x3e036f38	0.12835395
154	0xbea8e14a	-0.32984382
155	0x3e2c2159	0.16809596
156	0x3d611ea2	0.054960854
157	0xbdb50026	-0.08837919
158	0x3dcbd028	0.09951812
159	0x3d97c7d1	0.07411159
160	0xbe53160c	-0.20613879
161	0x3c3292a3	0.010899219
162	0x3d0172a0	0.031603456
163	0x3c912ec2	0.017722491
164	0xbe19b8ad	-0.15011854
165	0x3e28c103	0.16479878
166	0x3e10e7c6	0.14150915
167	0x3d8eb897	0.069688015
168	0x3ddfc786	0.10926728
169	0x3d989bc1	0.07451583
170	0x3d1fb3c1	0.038989786
171	0xbdf0d4ab	-0.11759313
172	0x3e585bfe	0.21128842
173	0xbe2be7e4	-0.16787678
174	0xbe181158	-0.14850366
175	0x3e6e41e7	0.23267327
176	0xbd5964a2	-0.053074487
177	0x3d770d93	0.06031568
178	0x3e1d8145	0.15381344
179	0xbcef2b4f	-0.029195456
180	0x3d27aca6	0.040936135
181	0x394bc83d	0.00019434183
182	0xbe3c563e	-0.18392274
183	0xbda72966	-0.08162193
184	0x3dbe8b13	0.0930387
185	0xbcf862eb	-0.030320605
186	0xbd7615e4	-0.06007947
187	0xbe5a0b3f	-0.21293353
188	0xbca0cb18	-0.019628093
189	0xbda6d172	-0.08145417
190	0x3e1cd10b	0.15314119
191	0x3da73841	0.081650265
192	0xbd916762	-0.07099797
193	0x3d81466d	0.06312261
194	0xbd8cd178	-0.068758905
195	0xbe39ef71	-0.18157746
196	0xbd4d0315	-0.050051767
197	0x3bc33789	0.005957548
198	0xbe3b7663	-0.1830688
199	0xbd8db15e	-0.06918596
200	0xbea6b2dc	-0.32558334
201	0x3e43300d	0.19061299
202	0xbe082a2e	-0.1329734
203	0x3e57d2e8	0.21076548
204	0xbe3992ee	-0.18122455
205	0xbd6d34e4	-0.05791177
206	0xbdad3f3b	-0.08459326
207	0xbc209ed0	-0.009803489
208	0x3d8124fd	0.06305883
209	0x3d76b329	0.060229454
210	0x3dfb3da6	0.12267618
211	0xbd30940e	-0.043109946
212	0x3d6bc6c9	0.057562623
213	0x3e181940	0.14853382
214	0xbdeff6dd	-0.11717007
215	0xbc63348a	-0.013867507
216	0x3d7408c4	0.059578672
217	0xbe014a3c	-0.12625974
218	0xbe350591	-0.17677905
219	0x3e1859b2	0.14877966
220	0xbca5c5c2	-0.0202359
221	0x3d030093	0.03198297
222	0xbc2ff18e	-0.0107387435
223	0xbd514f97	-0.051101293
224	0x3e841c79	0.25802973
225	0x3df88207	0.12134176
226	0xbd4dae91	-0.050215308
227	0x3de15f46	0.110045
228	0x3e240ac3	0.1601973
229	0xbe120564	-0.14259869
230	0x3d3f5882	0.046715267
231	0xbd6481eb	-0.055787962
232	0xbdd61dc7	-0.10454898
233	0x3d521db2	0.05129785
234	0x3d81c8d3	0.06337132
235	0x3de3f470	0.11130607
236	0x3e8ca462	0.27469164
237	0x3d820c74	0.063500315
238	0x3d0b744b	0.034046452
239	0x3e1ef4c5	0.1552306
240	0xbd98ff15	-0.07470528
241	0x3bf31b02	0.007418991
242	0x3d08bbd2	0.033382244
243	0xbe389d60	-0.18028784
244	0xbe3d2721	-0.18471958
245	0xbce7eeb4	-0.028312065
246	0x3dbc19f0	0.09184635
247	0xbd8f06ce	-0.0698372
248	0x3d3bcf95	0.045852263
249	0xbd5f7fed	-0.05456536
250	0xbdb1ec58	-0.08687657
251	0x3dec8b84	0.11550048
252	0xbd3dba08	-0.04631999
253	0xbe10c407	-0.14137278
254	0xbdb910eb	-0.0903643
255	0xbd760e8f	-0.060072478

bias f4 [64]
0	0x3e3c20e0	0.18371916
1	0x3d0c9d09	0.034329448
2	0x3d7d68ed	0.061867643
3	0x3e2e1620	0.17000628
4	0x3cf3e250	0.029771
5	0xbdcab7f1	-0.09898365
6	0x3ce38b68	0.027776435
7	0xbd8d2dc2	-0.06893493
8	0xbd991efc	-0.07476613
9	0xbd9d58b7	-0.07682937
10	0x3d2e71a4	0.042588845
11	0x3c7181a3	0.01474038
12	0x3ddf047a	0.10889526
13	0xbdb7767c	-0.08958146
14	0x3d1cf7c1	0.038322214
15	0xbc1191de	-0.008884875
16	0x3de9fd51	0.114252694
17	0x3bdbac8d	0.0067039193
18	0x3db4eee6	0.08834629
19	0x3c8aebd6	0.016958158
20	0xbddf1336	-0.10892336
21	0xbd69beac	-0.057066604
22	0xbbde607c	-0.006786404
23	0xbd976a46	-0.07393317
24	0xbd1b83c4	-0.03796746
25	0xbdb42037	-0.08795207
26	0xbdff8f0c	-0.12478456
27	0xbd7763ae	-0.060397796
28	0xbe5ccea1	-0.21563198
29	0xbda5ac66	-0.08089523
30	0x3e604106	0.21899804
31	0x3d059b47	0.032618787
32	0x3d23d793	0.04000051
33	0x3c4f2fad	0.012645644
34	0xbdea43a1	-0.114386804
35	0x3db18fbb	0.086699925
36	0x3db097a4	0.08622673
37	0x3d1123e9	0.035434637
38	0x3e3d58a2	0.18490842
39	0x3c8cbf2c	0.017181002
40	0xbd8e5473	-0.06949701
41	0xbe5e2988	-0.2169553
42	0x3d79f66e	0.06102603
43	0xbe4bb73e	-0.1989412
44	0xbd92f980	-0.071764946
45	0xbc83101a	-0.015998889
46	0x3e480c3b	0.19535916
47	0x3e2718d2	0.16318062
48	0x3cd46211	0.025925668
49	0x3d585cfb	0.052823048
50	0x3d9f8b83	0.077902816
51	0xbdc20746	-0.094740435
52	0xbd872d45	-0.06600431
53	0x3d1f5953	0.038903546
54	0x3c903e81	0.01760793
55	0x3d9a247d	0.07526491
56	0x3bdb2d88	0.0066887774
57	0x3d789545	0.06068923
58	0x3c48fe9e	0.012267737
59	0xbd943f34	-0.072386175
60	0xbc81dd37	-0.015852554
61	0xbd9646c6	-0.07337718
62	0x3e049728	0.12948287
63	0xbe62205c	-0.22082657

weight f4 [2, 64]
0	0x3d446a07	0.047952678
1	0xbdc64886	-0.096818015
2	0xbe25f194	-0.16205436
3	0x3e6785c0	0.22609615
4	0xbe8f57d3	-0.27996692
5	0xbeb1a81c	-0.3469857
6	0xbe17bbff	-0.14817809
7	0xbcf622b5	-0.030045846
8	0xbe8d59dc	-0.2760762
9	0x3e3eb347	0.18623076
10	0x3e1e8d9a	0.15483704
11	0xbe111a2f	-0.14170144
12	0x3dc24fe2	0.09487893
13	0x3dd28180	0.102786064
14	0xbe52d716	-0.20589861
15	0xbe84e2ac	-0.25954187
16	0x3e35a572	0.17738894
17	0xbe7e8ab3	-0.24857597
18	0x3ecc263a	0.39872915
19	0x3e978c2e	0.29599136
20	0x3e4a7af9	0.19773473
21	0x3e474db9	0.19463243
22	0x3d936961	0.07197834
23	0x3e366186	0.1781064
24	0x3e0ca09e	0.13733146
25	0xbdb37ea1	-0.08764387
26	0x3d4fcbba	0.0507314
27	0xbe67183a	-0.22567835
28	0xbe6a8fa0	-0.22906351
29	0xbca4c924	-0.020115443
30	0x3bf746b0	0.0075462684
31	0x3e77dd93	0.24205618
32	0x3e6f7ad1	0.23386694
33	0xbe3bd286	-0.18342027
34	0x3d85d809	0.06535346
35	0x3e202e5f	0.15642689
36	0xbc005399	-0.007832431
37	0x3e5376bf	0.20650767
38	0x3e1f44eb	0.15553634
39	0xbdb3c4b0	-0.087777495
40	0xb922d3e2	-0.00015528456
41	0xbd95ce6c	-0.073147625
42	0x3eb3b57a	0.35099393
43	0x3cb037e7	0.021511031
44	0xbe65bae0	-0.22434568
45	0x3d105f9c	0.03524743
46	0x3e106831	0.14102246
47	0x3e38a05c	0.18029922
48	0x3cb6d770	0.022319525
49	0xbdc0dc42	-0.09417011
50	0x3eadfabd	0.3398036
51	0xbe303233	-0.1720665
52	0x3e5ff18b	0.21869485
53	0x3e593710	0.21212411
54	0x3df4201d	0.119201876
55	0xbec6a568	-0.3879807
56	0xbe856707	-0.26055166
57	0x3d035a73	0.03206868
58	0x3d44c3ec	0.04803841
59	0xbe6e7540	-0.23286915
60	0xbc2bf1f1	-0.010494695
61	0xbe58dadd	-0.2117724
62	0xbcf366d1	-0.029712113
63	0x3c165ab3	0.009176898
64	0x3a701e4b	0.00091597874
65	0x3dd5431f	0.10413193
66	0x3e8240d9	0.254401
67	0xbe82ba7d	-0.25532904
68	0x3e75382f	0.23947214
69	0x3eb30780	0.3496666
70	0x3c3bbf94	0.01145925
71	0xbdac4766	-0.08412056
72	0x3e2a70fe	0.16644666
73	0xbc9def42	-0.019279126
74	0xbda72718	-0.081617534
75	0x3d1f09fc	0.03882788
76	0xbe14a66d	-0.14516611
77	0xbc59e37c	-0.013298865
78	0x3e31cce2	0.17363313
79	0x3e7410a9	0.2383448
80	0xbe343a3d	-0.17600341
81	0x3e8cfdf3	0.27537498
82	0xbeb0a852	-0.34503418
83	0xbe5a974f	-0.21346782
84	0xbd942e4e	-0.072353944
85	0x3c4fc0d7	0.012680254
86	0xbde2957c	-0.11063668
87	0xbcf6eab6	-0.030141216
88	0xbe08c8df	-0.13357876
89	0xbdc17449	-0.09446008
90	0xbd99df3e	-0.07513283
91	0x3e87054d	0.26371232
92	0x3e611ab5	0.21982844
93	0xbd942139	-0.07232899
94	0xbd63b06f	-0.055588182
95	0xbe1acdc8	-0.15117562
96	0xbe67a757	-0.22622429
97	0x3d7eb7e6	0.062187098
98	0xbca40771	-0.02002308
99	0xbe61ce63	-0.22051387
100	0xbe49b16a	-0.19696584
101	0xbe8d0d94	-0.27549422
102	0xbdac3947	-0.08409362
103	0x3e04d436	0.12971577
104	0xbdc72290	-0.09723389
105	0x3dc17179	0.09445471
106	0xbeb8d195	-0.36097398
107	0xbcacccf6	-0.021093827
108	0x3deb7843	0.114975475
109	0x3db5e616	0.08881776
110	0xbd67eb9a	-0.05662117
111	0xbe42a3fe	-0.1900787
112	0x3e14b60f	0.14522575
113	0x3e66d247	0.22541152
114	0xbebc354b	-0.3675941
115	0x3e777966	0.24167404
116	0xbe942e10	-0.28941393
117	0xbe89900b	-0.2686771
118	0xbe61a31a	-0.22034875
119	0x3e3eba33	0.18625717
120	0x3e834d36	0.25644845
121	0xbd9c6d63	-0.07638051
122	0xbe85a720	-0.2610407
123	0x3e7ce22a	0.2469565
124	0xbc81db5f	-0.015851675
125	0x3db05c5b	0.086113654
126	0xbc83aacf	-0.016072659
127	0x3d7add75	0.061246354

bias f4 [2]
0	0xbba86046	-0.00513843
1	0x3d1fcfc2	0.039016493
