ex3/GRU_128.pth (torch, 356880 bytes, 8 tensors)

weight f4 [128, 228]
000000 6f 6a 5d bd a0 77 0b 3e 34 49 71 bd fd bb 07 3d
       -0.05405658 0.13619852 -0.058907703 0.033138264
000010 d2 18 9a bd 0a fa 37 3e 3d 3d e2 3c 4c 98 f8 bc
       -0.07524265 0.17966476 0.027617091 -0.030346058
000020 b3 3f 04 3e a0 6d 12 be a6 c1 56 3e 0c a2 a0 bd
       0.12914924 -0.14299631 0.20972309 -0.07843408
000030 1b d8 50 3e 60 41 7f be 25 59 77 3e a3 1a ac 3d
       0.20394938 -0.24927282 0.241551 0.08403518
000040 ae c1 12 bd ad 9f e9 3d 7f 50 f6 bc e0 c1 6b 3e
       -0.03582924 0.11407409 -0.03006768 0.23023176
000050 08 21 45 be 96 a2 10 3e 7d 1e 49 bd 92 5a 10 be
       -0.19250882 0.14124522 -0.04910134 -0.1409705
000060 ae e0 8c 3d 5d 21 46 3c 4d 63 c6 3d 66 de 33 be
       0.06878792 0.012092915 0.09686909 -0.17565307
000070 3e 32 0a 3e 72 8a de 3b bf 08 45 bd 9d 43 27 3e
       0.13495728 0.0067914063 -0.048104044 0.16334386
000080 7f ed ff 3d c8 4a 5f be eb a7 09 be f3 fc 1d bd
       0.12496471 -0.2180587 -0.13442962 -0.03857131
000090 6e 85 a3 3d b0 2b 5b be 42 1e 91 bd 62 29 11 3d
       0.07984434 -0.21403384 -0.07085849 0.035439856
0000a0 50 ff dc 3c 12 c9 8a bd 7c 47 c2 bd 03 2d 4c 3e
       0.026977211 -0.06776632 -0.09486291 0.19939046
0000b0 7d 7f 8c 3d 48 15 c6 3d a5 31 04 bd a4 e8 9c be
       0.06860254 0.09672028 -0.032273907 -0.3064624
0000c0 65 2c 0f 3e be e1 1f 3e 98 37 26 bd 7d ca 60 be
       0.13981779 0.15613458 -0.040580362 -0.21952243
0000d0 76 eb 78 3d 5d 31 4b be bd 0a d3 3d ce cb f0 39
       0.060771428 -0.1984305 0.103047825 0.00045928214
0000e0 50 a3 0f 3d f0 cc 37 bd 25 31 57 be aa 6a 97 3e
       0.035067856 -0.044873178 -0.21014841 0.29573566
0000f0 54 00 14 3e 9b 00 cc 3d 16 d8 17 3c fe dc e0 bd
       0.1445325 0.09961053 0.0092678275 -0.10979651
000100 86 82 00 3e 49 a9 9d be 09 89 f1 bd 05 66 5d be
       0.1254979 -0.30793217 -0.117937155 -0.21620949
000110 60 1a 9f 3d b1 4d ad 3e b1 a8 42 3c ba 57 3e be
       0.077687025 0.33848336 0.0118810395 -0.18588153
000120 2e 73 97 3b 25 6f ee 3d 07 59 5b 3d 65 eb 6e bd
       0.004621885 0.11642293 0.0535517 -0.05832996
000130 d1 0d 99 3e 6c d1 11 be 9e e0 a0 bd cc cf af bd
       0.29893354 -0.14240044 -0.07855342 -0.08584556
000140 82 09 f5 3d b6 11 31 be 61 43 b6 be 39 23 37 3e
       0.11964704 -0.17291912 -0.3559828 0.1788453
000150 c4 47 9c 3d 23 fc 43 3d a2 48 b9 3c 86 f1 bb 3d
       0.07630876 0.04784788 0.022617642 0.09176926
000160 66 51 99 3e c0 80 8d 3d 65 c3 8e bd 50 82 55 3e
       0.29944915 0.06909323 -0.06970862 0.20850492
000170 80 b5 37 bd 81 4e 52 3e 72 56 21 bd 36 9b 3a bd
       -0.044850826 0.2053776 -0.03938908 -0.045558177
000180 fc 4d 0d 3b 6a 28 73 bd 7a 0c 24 bd ad 2e 99 3c
       0.0021561375 -0.059364714 -0.04005096 0.018699015
000190 f9 78 9b 3d d9 e9 2f 3e c6 00 42 bd 49 72 6e bd
       0.07591433 0.1717905 -0.04736402 -0.05821446
0001a0 3b 09 8b bd 4f e1 25 be f2 56 a9 3d 58 9a 2f be
       -0.0678887 -0.1619923 0.082685366 -0.17148721
0001b0 c7 29 8a 3d cb 0c 41 be 60 89 9c 3c ae 51 cf 3e
       0.0674625 -0.18852536 0.019108474 0.40492004
0001c0 6b 87 ce 3d 01 ef d6 3d f8 40 a4 3d a3 af b3 3e
       0.10084423 0.10494805 0.08020204 0.35094938
0001d0 79 e8 a4 3e c6 19 2c 3d 5a b5 08 be 41 6f 89 3d
       0.32208613 0.042016767 -0.1335043 0.06710673
0001e0 0b 95 94 3a 0f 18 36 3c d7 91 a2 bc f8 8f ad bd
       0.0011335922 0.011114134 -0.019844932 -0.084747255
0001f0 e0 8d a1 3d e9 0e 55 be 76 b8 bb 3c 38 a5 0c be
       0.07888389 -0.20806469 0.022915106 -0.13734901
000200 dc 08 1e be 97 cb 31 be 8e 69 e8 3d c1 ee 46 3e
       -0.15433067 -0.1736282 0.11348258 0.19427015
000210 2b 64 97 be 70 b8 85 bc 01 7a 28 3e 79 f8 f5 3d
       -0.2956861 -0.016323298 0.16452791 0.12010283
000220 c4 cf 3d 3e 58 d1 09 3f 29 71 c0 3c c8 59 84 3e
       0.18536288 0.5383506 0.023491459 0.25849748
000230 6e d5 89 3e 63 c5 eb 3d e8 53 3c 3e d9 77 88 be
       0.26920646 0.11512258 0.18391383 -0.26653937
000240 7b 11 18 3e 2a 88 6f bd 0d 6d 03 be c3 e6 b4 be
       0.14850418 -0.058479466 -0.12834568 -0.35332307
000250 e5 e5 19 3e b8 5c c6 be ea c4 88 be 57 52 98 bb
       0.15029104 -0.38742614 -0.26712734 -0.0046484875
000260 58 af a5 3a 2e ae 3d bc df 94 6b 3e d4 99 97 bc
       0.0012640757 -0.011577172 0.23006009 -0.018505968
000270 d2 ef c8 bd 0d b4 18 bc ef 73 77 bd 7b 62 09 bd
       -0.09811367 -0.009320271 -0.060413297 -0.033541184
000280 71 dc 97 bc 9e 9b 17 3e 30 e4 38 be 7e a0 71 be
       -0.018537732 0.14805457 -0.18055797 -0.23596379
000290 ae 14 71 3d b0 5f c6 bd 2a b6 bb be 49 13 1d 3e
       0.058857612 -0.0968622 -0.36662418 0.15339388
0002a0 bd 82 9e be 09 46 6d 3e 16 a2 fd be 7f 8c e5 bc
       -0.3095912 0.23171248 -0.49537724 -0.028021095
0002b0 fe 29 8f 3e bc 5d 31 be b3 25 db 3d 15 bb 32 be
       0.27961725 -0.17320913 0.1070055 -0.17454179
0002c0 d5 b7 83 be 3d 86 c5 3c 9f 8c a0 ba 9d c2 c2 bb
       -0.2572619 0.024111861 -0.001224894 -0.00594361
0002d0 60 7d 9d 3e 57 49 19 3d 85 6d 7b be f3 0b ad bd
       0.30759716 0.037423458 -0.24553497 -0.08449545
0002e0 77 b4 aa 3e 25 13 26 3d e1 52 1e bc 27 a5 7e bd
       0.3334081 0.0405456 -0.009663315 -0.06216922
0002f0 9e ec 97 3c bd be 98 3d dd f6 8e 3d 5b 21 97 be
       0.018545445 0.074582554 0.06980679 -0.29517636
000300 f3 f2 a9 3e c6 ef 1f 3e 38 93 1f be f6 d6 d4 3d
       0.33193168 0.1561881 -0.15583503 0.10392563
000310 77 1a 09 bd c3 60 ae be 88 63 41 be e6 3b 2c be
       -0.033472504 -0.34058198 -0.18885624 -0.16819724
000320 38 2c 97 be ff 48 c6 3d e3 e2 24 bd 69 a2 87 be
       -0.29525924 0.09681892 -0.04025544 -0.26491097
000330 11 dc 9c 3d ec 5f 56 3d 4a 57 78 be 47 cf 30 3e
       0.07659162 0.052337572 -0.24252048 0.1726657
000340 37 ad 05 bd f9 47 75 3e e4 5c 97 3c c0 d1 bf 3c
       -0.032635894 0.23953237 0.01847691 0.023415446
000350 6d 79 35 3d 01 39 81 3e c2 d1 a0 bd 60 5d 4c 3b
       0.044305254 0.25238803 -0.07852508 0.0031183586
000360 cc dc 1f 3b 33 3b 05 3d cd 10 32 3d f7 d4 a7 3e
       0.002439308 0.03252716 0.043473054 0.32779667
000370 f7 58 cf 3c 91 4f 34 3e 13 4c 92 3e f1 63 97 bd
       0.025310976 0.17608477 0.28573665 -0.07392109
000380 22 86 ce bd bd 27 39 be c7 10 c2 3d 9b 44 60 be
       -0.100841776 -0.18081565 0.09475856 -0.21901171
000390 79 0a ab bd 0f da c9 be 95 53 cc 3e bf 7b d0 bc
       -0.08351607 -0.39424178 0.39907518 -0.025449632
0003a0 46 70 de 3a b4 ea 48 be 0b 4e b5 3d d4 b2 41 3e
       0.0016970716 -0.19620782 0.08852776 0.18915874
0003b0 26 7c f1 be 32 36 cd 3e 24 3e c4 bc 15 5a 1e 3e
       -0.4716503 0.4008041 -0.023955412 0.15464051
0003c0 25 9f 36 be 5c f1 37 3e 93 c4 cf be fb 4e 83 be
       -0.17834146 0.17963165 -0.40579662 -0.25646195
0003d0 d8 ba b7 3e 28 ea 82 3d fc 97 0e 3e 4f a2 84 be
       0.35884738 0.06392318 0.13925165 -0.25905082
0003e0 02 df 37 3e 5c 4d cb be 29 d9 c2 3e 61 54 bd bd
       0.17956164 -0.39707458 0.38056305 -0.092446096
0003f0 4a ad 3d 3c 09 61 2f 3e 3e 4e 4f 3e 7d cc 94 3e
       0.01157696 0.1712686 0.20244691 0.29062262

bias f4 [128]
000000 5d 6f 99 3c 76 e5 86 bc c6 9e 48 be 41 ca 01 be
       0.01872986 -0.016466837 -0.19591817 -0.1267481
000010 d0 7d b9 bc 74 66 d7 3d 22 e0 82 3d 1f c1 67 be
       -0.022643 0.10517588 0.06390406 -0.22632264
000020 2b 88 b5 be ea 8b 80 bd a9 72 03 bf aa 20 88 be
       -0.3545545 -0.062766865 -0.5134683 -0.2658742
000030 c8 00 88 bc 14 b2 5c 3c 8d 7b 8e be 97 f9 d3 3d
       -0.016601935 0.0134701915 -0.27828637 0.1035034
000040 49 c9 a3 3c 60 24 d1 bd e0 d1 8c be 0c e4 ee bd
       0.019993441 -0.10212016 -0.27503872 -0.1166459
000050 72 09 db 3d c6 d8 6b be 5b f1 bf be 62 ae 15 be
       0.10695161 -0.23031911 -0.37488827 -0.14617303
000060 d2 15 d2 be 21 4e 23 be c7 39 a1 be e8 6e d9 be
       -0.41032273 -0.15947773 -0.31489393 -0.42467427
000070 ed 77 d6 bc ef a4 76 bc 67 18 09 be 2c 56 9d 3d
       -0.026180232 -0.015053972 -0.13388215 0.076824516
000080 a5 b8 2d bd bf 5b e3 3d 57 14 1d be 5b 20 76 be
       -0.04241242 0.111014836 -0.1533979 -0.2403578
000090 22 38 d9 be 54 7c e5 bd 0a 77 78 3d b1 c7 04 bd
       -0.42425638 -0.11205354 0.0606604 -0.032417003
0000a0 77 96 ec 3d bf 53 06 be c7 e8 c3 bd c2 0c 1e be
       0.115521364 -0.13117884 -0.09565883 -0.15434554
0000b0 00 c4 0a be c5 b0 3c be a0 8c a9 be 3e 5e 89 be
       -0.1355133 -0.18426807 -0.331151 -0.26829714
0000c0 5e c2 10 be 39 db 4d be 53 e1 f3 bd 34 b2 f7 3c
       -0.14136645 -0.20103158 -0.119082116 0.030236341
0000d0 f2 08 4d be 93 de e3 be 66 7d ad bd 12 20 ee be
       -0.20022944 -0.44505748 -0.084711835 -0.46508843
0000e0 08 83 25 bd 2b f2 5f be 4f c2 b5 be 5e 38 10 be
       -0.040408164 -0.21869723 -0.35499808 -0.14084002
0000f0 ef af 4e 38 4c 8f c7 be 3f fb b6 be c7 4e 23 3e
       4.927808e-05 -0.38976514 -0.3573856 0.1594802
000100 4a ea 11 bf 3b 62 6d be ed 13 12 3e 20 ab bf be
       -0.5699812 -0.23182003 0.14265414 -0.37435246
000110 93 36 e4 bd 7f 4e e8 3b df 57 86 3d 5b b3 0d be
       -0.11143222 0.0070894356 0.06559729 -0.1383795
000120 03 c4 8f 3c cb 7a ed 3d a8 94 ce be 39 e5 44 bd
       0.01754952 0.115956865 -0.4034779 -0.048070166
000130 64 cc 37 bc 81 08 4b bd 81 35 7e be f2 1a 4e 3d
       -0.011218164 -0.049568657 -0.24825098 0.050318666
000140 2d 2d 92 be 40 86 91 bc f7 44 10 be fa 25 04 3e
       -0.2855009 -0.01776421 -0.14088808 0.12905112
000150 74 7f aa bd 17 b0 23 3d c8 a5 da be 19 29 b4 be
       -0.08325091 0.039962854 -0.42704606 -0.35187605
000160 7d f1 03 bf 3a c5 ba be c1 22 71 be aa e4 0f bf
       -0.51540357 -0.36478597 -0.23548414 -0.5620829
000170 87 a3 68 bc e4 8a 19 bb 81 a0 15 3e d8 6e da bc
       -0.014199144 -0.0023428733 0.14612009 -0.026664183
000180 94 bf fe bc bf bf 9d 3d f7 37 17 3c 9e f2 a0 be
       -0.031097211 0.07702588 0.009229652 -0.31435102
000190 a2 bd 8d bd a4 3c 94 bd 80 ce 33 bd 61 5d 45 be
       -0.06920935 -0.07238129 -0.043898106 -0.19273902
0001a0 90 28 b9 bd 05 5d dc be 3f 34 0f 3d a5 28 48 3d
       -0.0904094 -0.43039718 0.034961935 0.048866887
0001b0 a3 71 00 be 0a f1 f8 bd c2 e0 c6 be b3 92 2c 3d
       -0.12543349 -0.121553496 -0.38843352 0.04213209
0001c0 8c 92 0c 3d 31 dc d0 be 05 1d 66 be c8 69 c0 bd
       0.034319445 -0.40792993 -0.22472008 -0.09395176
0001d0 98 91 b2 bd 58 e5 e0 be f0 a7 81 bd 1c 85 d3 be
       -0.08719176 -0.43924975 -0.0633086 -0.41312492
0001e0 5c f4 af 3d 05 95 a6 3d 70 7a 76 be 33 18 01 be
       0.0859153 0.08133892 -0.24070144 -0.12606888
0001f0 60 c4 d4 bd c7 65 62 3d 49 cf 36 bc a2 78 88 3b
       -0.10389018 0.055272844 -0.011157819 0.004164771

weight f4 [128, 228]
000000 42 cc 30 3d a5 e5 4c 3e 5a 74 bc 3c 17 51 a2 3c
       0.043163545 0.20009477 0.0230047 0.019814057
000010 1e 03 40 be be c3 b2 3c 83 1b 88 be 25 50 ae bc
       -0.18751189 0.021821853 -0.2658349 -0.02127845
000020 b3 2e eb bd cd ef ac be af f3 13 be 0c 65 7c bd
       -0.114835165 -0.33776703 -0.14448427 -0.061619803
000030 10 0b 86 bd 30 68 25 be 45 26 05 3b 59 a4 a7 3d
       -0.06545079 -0.16153026 0.0020317 0.08185644
000040 d5 52 29 bc 9d 5a 15 3e 4a de 73 3e 31 49 94 3d
       -0.01033469 0.14585347 0.23815265 0.07240523
000050 5f 36 1a bd 11 2c 24 3d 64 7b 06 be 2e 01 14 bd
       -0.03764951 0.040081087 -0.13133007 -0.036133938
000060 8c 7c 1d 3e 37 e6 21 bd a0 c2 6e 3c 04 2d 10 be
       0.15379542 -0.03952619 0.014572769 -0.14079672
000070 b5 5a b6 3d 42 bb b7 3b bf da dd 3d 45 37 f4 3c
       0.0890402 0.0056070397 0.10832738 0.02981151
000080 5f a2 00 bc 53 0a 22 be 44 fb f5 3d 74 fd 35 3e
       -0.007851212 -0.15824251 0.12010816 0.17772466
000090 2b d7 39 3d a5 1a 6f bc 08 8e f1 bd bc 20 49 bd
       0.045371216 -0.014593755 -0.117946684 -0.049103484
0000a0 9e bc fc bc 2b 7e 46 be 5a a3 fa bd b1 c9 56 bd
       -0.030851658 -0.19384067 -0.12238188 -0.05243844
0000b0 b1 68 c4 bd 02 f1 04 bd 0a 61 78 bd 8d d8 b1 3d
       -0.09590281 -0.032456405 -0.06063942 0.08683882
0000c0 f0 a4 32 3e 27 f2 81 3d 8d 68 53 be 1e 45 77 3d
       0.17445731 0.06345015 -0.20645352 0.06036865
0000d0 09 10 a1 3b 10 f3 a4 bc c9 1c 4b bc 14 64 5e 3d
       0.0049152416 -0.020135432 -0.012397 0.05429466
0000e0 9a dd 73 3e 44 60 50 be 02 42 99 3d e1 8e 76 3e
       0.23815003 -0.20349222 0.07483293 0.24077941
0000f0 82 50 ec 3d f2 80 00 3e 15 e1 b4 bc 0f 45 c0 3d
       0.11538793 0.12549189 -0.022079984 0.09388172
000100 ee 2a 85 bd cc 30 4b bd ad 94 df bc 95 29 9b bd
       -0.06502329 -0.049607083 -0.027292574 -0.075762905
000110 90 6d a6 be 42 e9 81 3e 25 dc 71 3b e2 00 17 3d
       -0.32505465 0.25373274 0.0036904898 0.036866076
000120 53 05 b7 bc 27 a3 17 3e 46 66 b5 3d 20 11 67 3d
       -0.022341406 0.14808331 0.08857398 0.056412816
000130 6e 37 46 3d 05 a9 fc 3c b1 82 23 be 55 f1 83 bd
       0.048392706 0.030842314 -0.15967824 -0.06442515
000140 50 1b 07 3e 61 6d 2f 3d 1a f6 9d 3d 3e d4 1f be
       0.13194013 0.04282892 0.07712956 -0.15608308
000150 d7 03 5f bd 01 87 95 bc e0 01 0c 3e 0d 7a 11 3d
       -0.05444702 -0.018252851 0.1367259 0.035516787
000160 c0 11 0c 3e 47 9a 97 3d 9e 1a ae bd 6a 1c 9d be
       0.13678646 0.07402473 -0.085011706 -0.3068574
000170 75 77 1c bd d2 9a 75 be 31 61 93 be 35 1c 5b 3d
       -0.03819986 -0.2398484 -0.2878509 0.053493697
000180 f4 45 4b bd 90 1a e6 bc 01 e0 78 bc e0 5b 14 bc
       -0.04962726 -0.028088838 -0.015190125 -0.009055108
000190 74 32 68 3d b3 85 09 be 40 c9 6a 3e 8a cd 06 be
       0.05668874 -0.13429908 0.22928333 -0.13164344
0001a0 e9 cc 4f be 44 f9 17 3b 64 04 de bc 28 74 39 3e
       -0.20293011 0.0023189345 -0.027101703 0.18110716
0001b0 f5 7d c6 3c 2b ec 94 be ee 5f 63 be aa a9 00 be
       0.024229983 -0.29086432 -0.22204563 -0.12564722
0001c0 39 84 6c bd 75 65 e3 bd 8e 62 df 3d 19 27 b7 3b
       -0.057743285 -0.11103336 0.1090747 0.0055893776
0001d0 62 0b 34 bc a1 fb e0 3d 50 6f cd bd 75 f3 ab bd
       -0.010989042 0.109854944 -0.10030997 -0.08396045
0001e0 d5 40 4a 3e 26 74 1e bd 7c 5f 17 be 4f db 44 be
       0.19751294 -0.038684987 -0.14782518 -0.19224285
0001f0 7b 44 18 3e 2d b0 58 3d 76 bd 83 3d 38 44 f8 bd
       0.14869873 0.05290239 0.06432621 -0.12122387
000200 f8 72 fa 3d 1a af 7a bd 8a 40 01 3e 81 d2 ae 3e
       0.1222896 -0.061202146 0.12622276 0.34144977
000210 fb 81 99 3d a0 90 fd be 15 0b 38 3e eb 75 54 3c
       0.07495495 -0.49524403 0.17972977 0.012967567
000220 14 24 cf 3e 9a 8f 89 be 7c 37 89 be 1b c9 2f bc
       0.40457213 -0.26867372 -0.26800144 -0.0107291
000230 32 33 c5 be fa 08 5f be a0 08 0a 3d 58 06 e1 3d
       -0.3851562 -0.21780768 0.03369963 0.10987538
000240 dd b1 1d 3e a5 ce 77 3c e4 29 ac 3e 9d 74 50 be
       0.1539988 0.0151249515 0.3362571 -0.20356984
000250 7f 70 81 be 5b 76 58 3d 7d 71 10 be 4e 25 fd 3d
       -0.2528114 0.052847248 -0.14105792 0.12360631
000260 78 7f cb bd 30 21 4e 3e 72 44 11 3e 70 3d 22 bc
       -0.09936422 0.20129848 0.14186266 -0.009902343
000270 0e 56 95 be 90 fb 89 3e 53 cb 9a 3e 6b c2 08 be
       -0.29167217 0.2694974 0.3023325 -0.13355415
000280 df 68 12 3e ab 83 8b 3e 8a bc 90 bb de c7 8f 3e
       0.14297818 0.27248892 -0.004417007 0.28082174
000290 98 17 b9 3e 61 0c ad 3c 93 fc c6 bb 14 d3 81 bd
       0.36150813 0.021124067 -0.0060725897 -0.06339088
0002a0 11 8f f9 3d a7 a4 27 bd 34 4f 5f be 27 86 cf 3b
       0.12185491 -0.04092851 -0.21807557 0.006333131
0002b0 ea 28 89 3e 0e d2 36 3e a8 27 53 be b3 1e d3 3b
       0.26789027 0.17853567 -0.20620596 0.0064428686
0002c0 b1 d0 8b 3d 36 6e 4b 3e c5 5e ae bc 6b e8 1f 3e
       0.06826914 0.19866261 -0.021285424 0.15616004
0002d0 90 a9 00 bf d4 ed 43 be b1 3f 4e be 66 19 20 3e
       -0.5025873 -0.19133693 -0.20141484 0.15634689
0002e0 84 39 36 be fc b4 0c be a1 4f bf bd db 26 db be
       -0.17795378 -0.13740915 -0.0934136 -0.42803082
0002f0 a5 00 17 be c1 5f 86 be 2d 61 dd 3d e5 c7 39 be
       -0.1474634 -0.2624493 0.108095504 -0.1814266
000300 78 a0 ce bc 81 b0 1c 3e 43 87 39 be 54 16 03 bd
       -0.025223002 0.15301706 -0.18118005 -0.032003716
000310 d9 e9 af 3e ec 29 31 3e 89 27 26 3e d9 fa dd 3c
       0.343581 0.17301148 0.16226019 0.027097153
000320 00 be 2d 3e a0 b1 fe 3d 39 14 3e bd de 28 d9 bd
       0.1696701 0.12436223 -0.046406005 -0.10603498
000330 df ca 0d 3f e4 55 ee 3d af e1 6c 3d 83 78 bd bd
       0.5538768 0.11637476 0.057832416 -0.092515014
000340 74 47 8d be 69 87 06 bf 53 dd 19 3e 64 8c 6b 3e
       -0.27593577 -0.5255037 0.15025835 0.23002774
000350 b6 de 12 3e 3c c6 05 3e 7d a5 b8 3d a8 56 9e be
       0.1434277 0.13063902 0.090159394 -0.30925488
000360 c8 5b cc 3c 33 18 c7 3e e1 bb 9b bd c5 49 90 bc
       0.024946108 0.3888565 -0.076041944 -0.017613301
000370 46 ca a6 3e f9 42 37 bd aa f7 2d 3e cf a3 6e 3e
       0.32576197 -0.044741604 0.16989008 0.23304676
000380 10 33 1f 3e ba 3e d4 3d 4c e1 c6 3d f4 11 74 bd
       0.15546823 0.10363527 0.09710941 -0.059587434
000390 3f 14 3f 3d d2 0d 75 3d 94 a8 bc 3e ae d2 1a 3e
       0.046650168 0.059827633 0.36847365 0.1511943
0003a0 ce f3 4a be cb 27 72 be 7e 1a d5 3d c6 70 cc be
       -0.19819567 -0.23647992 0.104054436 -0.3992979
0003b0 75 f0 a7 bd d1 8b 21 be 0c 8a 88 3d 1d 10 09 be
       -0.082001604 -0.15775992 0.06666955 -0.13385053
0003c0 a9 34 59 be 7d 58 42 3e cb 17 10 3d a4 29 5e 3d
       -0.21211495 0.18979068 0.03517894 0.05423893
0003d0 61 e2 03 be 4f 0b b2 3d 23 41 1b 3b 10 09 82 3e
       -0.12879325 0.08693563 0.0023689948 0.2539754
0003e0 ba fb 95 3d f9 ef 10 bc 0a 00 3f be b0 e5 45 3e
       0.07323404 -0.008846276 -0.18652359 0.193259
0003f0 0a 22 7e be 4b 04 51 bd 47 c2 05 be d8 b1 dd bd
       -0.24817672 -0.051029485 -0.13062392 -0.10824937

bias f4 [128]
000000 85 ad 77 bd cb af 32 be 84 d4 b8 bc 8f f9 2b bd
       -0.060468215 -0.17449872 -0.022562273 -0.041986044
000010 77 2e 49 3d 99 56 13 be 6d 4a 87 3b 47 b2 93 bd
       0.049116578 -0.14388503 0.0041287453 -0.07211738
000020 ee 19 ac 3c 7b f6 c8 bd de 23 15 3d 53 f1 67 3d
       0.021008458 -0.098126374 0.03641116 0.05662663
000030 25 7f cd bc 1b c4 33 bd a8 58 00 3d e7 42 82 bd
       -0.025085041 -0.043888193 0.03133455 -0.06360417
000040 0c 86 a6 bd c8 78 11 be 4d 85 8b bd 85 12 7e bd
       -0.08131036 -0.1420623 -0.068125345 -0.06202938
000050 ea bd 01 bd d7 07 e7 bd c6 c4 92 3d 92 b4 d6 bd
       -0.031675257 -0.11280792 0.07166438 -0.1048366
000060 2c d3 b7 bc ae 96 73 bd be 53 b9 bd 9f 81 8b 3d
       -0.022439562 -0.05946987 -0.09049176 0.06811833
000070 4c 17 d6 bc 13 3c 13 bd ca 47 15 be b0 ad a3 bd
       -0.026134156 -0.035945963 -0.14578167 -0.07992113
000080 d1 cb 8a bd cd 13 d4 bd 5b 6a 23 bc b1 8c 03 be
       -0.06777156 -0.10355339 -0.009974088 -0.12846638
000090 db 8b ba bc 14 2d 13 bd 4d 56 06 bd 58 59 46 bd
       -0.022771766 -0.03593166 -0.032797147 -0.04842505
0000a0 c8 4f b1 bd 1c 09 53 bd 5c b0 74 bd 6f b4 aa bc
       -0.08657795 -0.05152236 -0.059738502 -0.02083799
0000b0 0e 3c 0c be 35 c4 16 3d 50 6a 9b bd 87 5f 7e 3b
       -0.13694784 0.03680821 -0.07588637 0.0038814263
0000c0 64 7a 98 bd 00 69 d5 bc 58 1d 57 bd 05 7c b2 bc
       -0.07445219 -0.026051044 -0.05251822 -0.021787653
0000d0 c5 79 e5 3a ad 35 4b 3d c6 be 00 be 8d 0b 4c 3d
       0.0017507604 0.049611736 -0.12572774 0.049815703
0000e0 37 b1 b9 3d 16 c4 13 bd 84 46 02 be 8b 27 14 bd
       0.09067004 -0.036075674 -0.12722212 -0.036170524
0000f0 3f 6c 15 3d 35 4d df bc bc 25 c7 3d 94 37 a6 3d
       0.036480185 -0.027258495 0.09723994 0.081160694
000100 8f 6d 54 bd c4 9c 6b bb 2a 3a f9 3b 17 a4 b8 bc
       -0.051862296 -0.0035951594 0.0076058106 -0.022539182
000110 44 d0 c3 bd 8a e6 e6 bd 95 67 0a be 86 7b a1 bd
       -0.09561208 -0.112744406 -0.13516076 -0.07884888
000120 31 cb b2 bd 61 89 6e 3b c2 59 0e bd 9e df 93 bd
       -0.08730162 0.0036397802 -0.03475357 -0.07220386
000130 b9 1d d6 bd 0b 7b 8f bd 8b 2f c7 bc 97 68 23 be
       -0.10454888 -0.070058905 -0.024314662 -0.15957867
000140 d9 ee 9a bc ce 39 97 bd 25 a6 78 bd 19 84 e1 bb
       -0.01891272 -0.07384072 -0.060705323 -0.0068822023
000150 17 56 c1 3d 66 bb 4c bd 7a ec b9 3c 7b 13 1c 3d
       0.094402485 -0.049983405 0.022695769 0.038104516
000160 e9 20 ef 3c 67 6a 72 bd 8b a7 cd bd ac 4f 98 3a
       0.029190497 -0.059183504 -0.10041722 0.0011620424
000170 28 55 2e be cf d6 e5 bd 6e 52 2f 3b 76 c7 86 3d
       -0.17024672 -0.11222612 0.0026752013 0.06581013
000180 b0 86 05 be 2f ae c2 bd ad 76 d8 3b be e8 2d 3d
       -0.1303966 -0.09505879 0.006605944 0.04245829
000190 93 2f 17 bd 9d 27 20 bd 36 81 05 be bb ae 4d 3b
       -0.036910605 -0.03910028 -0.13037571 0.0031384665
0001a0 df 18 89 bb 61 c7 68 bd 9a 26 ec bd 6d 0e 86 bd
       -0.004183873 -0.056830768 -0.115308 -0.0654572
0001b0 f4 27 e2 bd d4 1a eb bd 24 32 8d 3c d5 fa b1 bd
       -0.11042777 -0.114797264 0.017235823 -0.086904205
0001c0 f9 8a 29 3d 52 74 90 bd 5c 81 df bd e6 01 0f bd
       0.0413923 -0.07053436 -0.10913345 -0.03491392
0001d0 76 56 21 3c 43 15 20 3a 62 58 d9 bd 89 d5 ca 3d
       0.009847274 0.0006106684 -0.10612561 0.0990401
0001e0 d0 f9 6b bd 02 51 40 bd 1f d7 17 bd b5 db 9e bd
       -0.057611287 -0.046952255 -0.03707039 -0.077567495
0001f0 bf 26 b7 bc f3 0c 02 be 84 78 4b bd b3 17 c4 bd
       -0.022357343 -0.12700252 -0.04967548 -0.09574833

weight f4 [128, 228]
000000 e6 57 12 be e2 dc a7 bd 7a 7c 28 3e c0 3b 89 bd
       -0.14291343 -0.08196427 0.16453734 -0.067008495
000010 82 6c 9d 3d e7 87 b2 3d f6 73 89 be f4 78 f3 bd
       0.07686712 0.087173276 -0.26846284 -0.11888304
000020 27 b7 c3 3c f6 8c e4 bd 0f b8 87 3d 03 af 1e 3e
       0.023891045 -0.11159699 0.06626903 0.15496449
000030 c9 e9 38 bd 98 7d df bd 56 f9 0e 3e b3 aa 27 3e
       -0.04514483 -0.10912627 0.13962302 0.1637371
000040 c8 d1 82 3c 75 c5 e5 bc ac 5e a0 bd a2 46 94 3d
       0.015969172 -0.028048256 -0.07830557 0.07240035
000050 47 e0 f7 3d e0 de b0 bd df 0b 16 be 96 d2 57 bd
       0.121033244 -0.0863626 -0.14652966 -0.052691065
000060 82 07 b4 3d 73 15 be bd dd ef 88 bc 82 6f 63 3e
       0.087904945 -0.09281435 -0.016715938 0.22210506
000070 df 00 46 be 1c bd 7e 3b 29 29 cd 3d c8 40 87 3e
       -0.1933627 0.0038870042 0.10017616 0.26416612
000080 d9 3b e6 bd 76 fd 01 be c0 74 41 bd 12 3c bf bd
       -0.11241884 -0.12694344 -0.047230482 -0.093376294
000090 f4 77 2f be df b6 81 bd 8e 88 a4 be 6e 2a d5 bb
       -0.17135602 -0.06333708 -0.32135433 -0.006505302
0000a0 fb 88 6e 3e b8 04 6f bd 55 7a b6 bd c3 b9 26 3e
       0.23294441 -0.05835411 -0.08910052 0.162818
0000b0 7a 47 95 bd d7 2e 2c 3e 5d 8a fb 3b 92 8e 96 be
       -0.07289024 0.16814743 0.0076764063 -0.29405648
0000c0 61 17 17 3e 2d aa dc bc 4e 46 09 3e 9c 8b 5e 3e
       0.14755012 -0.026936615 0.13405725 0.21732944
0000d0 27 55 2c be 55 6d 31 3d 7a 23 22 3e 0a 13 4d 3e
       -0.16829358 0.043317158 0.15833846 0.20026794
0000e0 9b c1 98 be 96 ea d0 3d 19 7b 8f bd 88 1d 2e 3e
       -0.2983521 0.10200994 -0.07005901 0.17003453
0000f0 c4 a0 ce 3d 96 e8 29 3d 16 4f 0b be 48 7f 8f 3d
       0.10089257 0.041481577 -0.13604388 0.07006699
000100 fc a6 2e 3e 8e 86 84 bd 79 ae b3 3e c5 51 61 3d
       0.17055887 -0.06470977 0.3509405 0.055009622
000110 ba 84 2c 3e 83 8b 83 3d 85 6e 53 be d5 71 b4 bd
       0.16847506 0.06423094 -0.20647629 -0.08810774
000120 29 d9 fd bd bc 20 24 3c 8b 4f b4 bb ea 94 28 be
       -0.12394936 0.01001757 -0.0055026463 -0.16463056
000130 9a d5 95 bd de 2a 80 bd 1d 81 39 3d f5 1e a1 bd
       -0.07316132 -0.06258176 0.045289148 -0.07867233
000140 e9 28 b8 3d 93 d4 38 3b 3a b3 15 3e cb 6b 03 be
       0.08992178 0.0028202876 0.14619151 -0.12834089
000150 88 10 4d 3d 86 85 2a be 58 f1 68 3e 5a 98 15 be
       0.050064594 -0.16652498 0.22748315 -0.14608899
000160 8a 27 8a 3d 6f 1c 8a bd c9 00 e9 bd 65 4a 2b bd
       0.06745823 -0.067437045 -0.11377103 -0.041818995
000170 2b 60 bd 3d db 46 7d be ad d8 7a be a9 cb 68 3e
       0.09246858 -0.2473406 -0.24496718 0.2273394
000180 83 38 e6 3d 74 6a a9 3c 27 23 27 3e 6e 15 e5 3c
       0.112412475 0.020680644 0.16322003 0.02796432
000190 af 74 7c 3e d2 49 2f bd 82 76 5b bd 2b 3a e6 3c
       0.24653886 -0.04279501 -0.053579815 0.028103909
0001a0 66 5e 5c 3d bb 65 b3 be 61 98 dd bc a5 6a 84 3e
       0.053800963 -0.35038552 -0.027050199 0.25862613
0001b0 ce c8 7d 3d a5 69 11 be 8a 41 d3 3d 54 f6 e2 bd
       0.06195908 -0.14200456 0.10315235 -0.110821396
0001c0 e0 2b 15 3e 76 4f 80 bd 4a 4c a1 3e d6 f8 69 3e
       0.14567518 -0.06265156 0.31503516 0.2284883
0001d0 10 c4 b5 3d 67 0d c6 3d d0 2a ab 3b 33 a1 21 be
       0.088752866 0.09670525 0.0052236095 -0.15784149
0001e0 51 c9 cf bd 7b 4a 0f be 82 2d 87 bc 7d 69 89 bc
       -0.1014582 -0.13993256 -0.016501192 -0.016773934
0001f0 7b 0c c6 bd 45 94 17 3e 71 13 d1 3b c0 bb e9 bc
       -0.09670349 0.14802654 0.0063804914 -0.028531909
000200 9f 51 b5 bd 49 bf 8a bd 80 cb 5e 3c 39 57 07 3e
       -0.088534586 -0.06774766 0.013598323 0.13216867
000210 70 46 99 be 53 8f c3 bd 72 39 cb 3c 37 0b a7 3d
       -0.29936552 -0.09548821 0.024807665 0.08156436
000220 66 5c ca 3d 12 4b eb 3d 0d a7 9c bd b4 cb 29 3e
       0.09880905 0.11488928 -0.0764905 0.16581613
000230 f0 6a 53 be c6 2d 66 be ea 4f 0d 3e 83 c7 a3 3d
       -0.20646262 -0.22478399 0.13800016 0.07997038
000240 85 a5 68 bc a3 bf 50 ba 63 c2 43 3d b8 23 75 3c
       -0.014199619 -0.00079631264 0.047792803 0.014962129
000250 1d d5 0a 3e fe df fc 3d a7 9f b7 be 16 e5 44 bd
       0.13557859 0.123474106 -0.35863993 -0.048070036
000260 a2 ec 5f 3d 24 68 87 bb 5c 93 19 3e d7 df 23 3d
       0.05466903 -0.0041322876 0.1499762 0.040008392
000270 43 8f 1f bd 3a 16 12 be 8d ff 21 be 9c 1c 2b 3b
       -0.038954984 -0.14266291 -0.15820141 0.0026109582
000280 5c 51 c5 3d 59 ef 5b 3d 3f ee 09 be 98 eb 9a 3c
       0.09634659 0.053695057 -0.1346979 0.018911168
000290 9c b7 46 be 8d 20 10 3d 4e bb 5b 3e 7d 7c cd 3b
       -0.19405979 0.035187293 0.2145817 0.0062709437
0002a0 e2 63 26 3e e6 54 1a 3d c4 43 36 bd 9b 41 e8 bc
       0.1624904 0.03767862 -0.04449822 -0.028351596
0002b0 54 40 31 be 67 ee c5 bc a7 c2 a1 3d fe 56 45 3d
       -0.17309695 -0.02416153 0.07898455 0.048178665
0002c0 4e 9c e0 3d 10 40 bc 3d dc 97 69 bd 39 58 fa 3c
       0.10967313 0.091919065 -0.05702959 0.030559646
0002d0 eb 0b 0c 3e 45 93 0e bd ce a6 47 be 0d a1 9a 3d
       0.13676421 -0.034808416 -0.19497225 0.07550249
0002e0 34 82 70 3d dd 02 9b bc 91 70 51 bd 30 3f 44 be
       0.05871792 -0.018922264 -0.051132742 -0.19164729
0002f0 31 78 4b be e3 29 3d 3d 50 82 4a be 7a 38 a2 3d
       -0.19870068 0.046182524 -0.19776273 0.07920928
000300 a7 52 be bd 4f 43 e4 3d 1d 70 01 be 15 b2 a3 3d
       -0.092931084 0.111456506 -0.12640424 0.07992951
000310 ef 18 a7 bd 69 fc b8 bc 12 19 b5 3d 04 a6 b4 bd
       -0.081590526 -0.022581296 0.088426724 -0.088207275
000320 9e 8f 36 3d fe 3a 45 3d 2f 8a a5 3d 5e a1 4e be
       0.044570558 0.048151962 0.08082997 -0.20178744
000330 e2 3a c7 bd 10 a7 3f be 79 64 a8 3d 12 86 a4 3d
       -0.09728028 -0.18716073 0.08222289 0.080333844
000340 dd 9f 8b bd e5 8b 0b 3e 26 15 af bd c1 d0 f1 bd
       -0.06817601 0.13627584 -0.085489556 -0.11807395
000350 ed 18 e3 3d 7b ed dc 3d e7 33 d6 3d f9 62 df ba
       0.110887386 0.10787483 0.10459118 -0.0017043046
000360 8a b5 f7 bd ae d9 14 3c 43 c2 0a 3d 86 b7 aa 3c
       -0.12095173 0.009085102 0.03387667 0.020839464
000370 a0 88 e0 bd a6 0b 03 3e 46 29 e1 3d a7 c2 f2 bd
       -0.10963559 0.12797412 0.109942004 -0.11853533
000380 28 59 45 3b 63 1e de bd d8 dd 98 bd 25 73 06 bd
       0.0030112956 -0.108456396 -0.07464188 -0.032824654
000390 b8 d1 b5 bc 24 50 3f 3d f9 2b cd 3d b4 50 f5 bd
       -0.022194728 0.046707287 0.10018153 -0.119782835
0003a0 86 8d 86 3d bf b4 84 be c6 4c 0d be b2 2e 41 bd
       0.06569962 -0.25919148 -0.13798818 -0.047163673
0003b0 5a d2 e8 3c e8 96 0d be 53 12 03 be 8e f6 7f 3d
       0.028420616 -0.13827097 -0.12799959 0.062490992
0003c0 97 8c 28 be 26 81 bd bd a0 80 8f bb c3 88 54 bd
       -0.16459881 -0.09253149 -0.004379347 -0.05188824
0003d0 54 2b 0d be 7d c8 c3 bd 82 6f a8 bb c7 25 fe 3d
       -0.1378606 -0.095597245 -0.005140246 0.12409549
0003e0 a2 fb fe 3d 51 4b bc be 9a 14 34 3d 6b 9d 97 3d
       0.12450339 -0.36776212 0.04396496 0.07403072
0003f0 d1 c9 73 bd ed f1 be 3d 89 67 45 3d f8 c3 eb 3d
       -0.05951864 0.093234874 0.048194442 0.115119874

bias f4 [128]
000000 b6 73 4d bb e8 fd f6 3c c4 da f8 bc 31 92 2b be
       -0.0031349487 0.030150369 -0.030377753 -0.16754986
000010 94 3b 54 bd ef 73 21 bd f9 8f 2c 3e 5a 32 83 bd
       -0.05181463 -0.039417204 0.16851796 -0.06406088
000020 70 08 f2 3c 70 50 9f bb 1f fa 47 bc d8 9f ca 3c
       0.029545039 -0.004861884 -0.01220563 0.024734423
000030 ed 38 3f bd d5 3f 92 bd 6a b5 23 3c 93 92 10 3c
       -0.046685148 -0.07141081 0.009991983 0.0088240085
000040 19 3e 22 3d 24 30 57 bd 80 6c 1b 3c 20 5d 34 bc
       0.039610002 -0.052536145 0.009486318 -0.011008531
000050 58 6c 72 3d bb 13 8c 3d c7 3b 6f bd cd 63 86 be
       0.059185356 0.06839701 -0.058406617 -0.26248017
000060 fd 7f 45 3d 8d 9e 82 3d d4 5d e9 3c 2e c4 93 3c
       0.048217762 0.063778974 0.028487124 0.018037882
000070 4f 5a 19 be 1e f7 8f bd 54 9f 90 bd 64 34 37 be
       -0.14975856 -0.07029556 -0.070616394 -0.17891079
000080 28 26 f2 3d dc 2f be 3d a3 aa 07 be 90 d9 4e bd
       0.11823684 0.09286472 -0.13248686 -0.050500453
000090 fb 06 50 bd a6 27 7b 3d 56 2d 14 3d 3f 5b 48 3d
       -0.050787907 0.06131711 0.03617605 0.048915144
0000a0 f2 3d 1a bd 04 bb 8a 3d 73 92 ae 3c 56 93 c9 bc
       -0.037656732 0.06773952 0.021310067 -0.024606388
0000b0 f9 36 81 3d bb 39 93 bc ee 4b a0 3d d8 e8 30 3c
       0.06309313 -0.017971864 0.078269824 0.010797702
0000c0 e5 3c c0 bd 69 14 44 3d fe 01 2b 3e 05 d4 1a be
       -0.09386615 0.047871027 0.16699979 -0.15119942
0000d0 e5 40 23 be 30 31 6d bb af a7 6c bc af 8c b0 3c
       -0.15942724 -0.0036192648 -0.014444276 0.021551458
0000e0 37 25 58 3b 6d dc 61 bd 62 d3 c5 3c c2 17 8b 3c
       0.0032981166 -0.055141855 0.024148647 0.016979102
0000f0 c7 94 d0 3c d5 03 93 bb 2a 08 1d bd 6e 86 58 bd
       0.025461568 -0.004486541 -0.038337864 -0.052862577
000100 f0 36 fd bb ea b1 8a bd de f4 db 3b 96 87 31 3d
       -0.0077274963 -0.06772216 0.00671254 0.043342195
000110 8e 7f c0 3d 59 ec 1e be e2 7a 3e 3e 70 ff c2 3c
       0.09399329 -0.15519847 0.18601564 0.023803443
000120 b3 ff eb 3d 58 ad 91 bd f7 2e 4c 3d 04 bb ab 3d
       0.1152338 -0.07113141 0.049849477 0.0838528
000130 30 81 99 3d cb 78 44 bd dc 97 31 bd 14 00 77 3d
       0.07495344 -0.04796676 -0.043357715 0.06030281
000140 ea 2c 3e bc 3e b4 0d bd 1e f7 96 3d 99 ca 81 3d
       -0.011607388 -0.03459572 0.073713526 0.063374706
000150 63 5f 8f bc a0 6e 16 3d 95 4b 3b 3d 98 24 40 3d
       -0.017501539 0.036726594 0.045726378 0.0469099
000160 d5 4d d4 3c cf c6 48 3c 15 50 4f bc 29 cd 5b bd
       0.02591602 0.012254431 -0.01265337 -0.053662453
000170 dd b7 e1 3d f7 8f 12 3e da 24 7c 3d 56 7b 75 bd
       0.11021397 0.1431273 0.061558582 -0.059932075
000180 2d 9c 4d 3d 8c 4b ec 3d 6e 6c ac bd a9 46 87 3c
       0.05019777 0.11537847 -0.08419119 0.016513186
000190 dd 16 b2 bd cc 13 ce 39 55 9e 4b bd b1 3f f2 bc
       -0.08695767 0.00039306132 -0.049711544 -0.029571386
0001a0 b1 f9 5a 3c 77 eb f7 bc 28 d3 5a 3e 39 0f 4e be
       0.013365195 -0.030263646 0.21369612 -0.20122994
0001b0 6e 6f 02 be f4 49 56 bd 9e 64 a8 bc 18 fc 97 3d
       -0.1273782 -0.05231662 -0.02055579 0.0742113
0001c0 b5 a5 cc bc e0 d9 03 3d c1 03 63 bc 98 4b d9 3b
       -0.024981359 0.032190204 -0.0138558755 0.006631326
0001d0 06 65 10 3d 61 19 86 3a 0f f5 45 3d b6 50 96 bd
       0.035252593 0.0010230952 0.04832941 -0.07339613
0001e0 47 f4 1b bd 86 c5 a6 3c c4 16 76 bd 77 00 6e bc
       -0.038074758 0.020357858 -0.060080305 -0.014526478
0001f0 13 6a ab bb 5d 97 07 be 0a c8 42 be 61 11 01 3e
       -0.005231151 -0.13241334 -0.19021621 0.12604286

weight f4 [2, 128]
000000 b2 f2 d0 3d fd 4b 8e bc 85 5b 85 be 4e 27 e8 3d
       0.102025405 -0.017370218 -0.26046386 0.11335622
000010 59 e9 58 be 06 d4 cc bd 4a 61 39 3e 59 75 a9 bd
       -0.21182765 -0.10001378 0.18103519 -0.082743354
000020 36 50 2d 3c 51 22 16 bd 68 95 53 3e eb e9 45 3e
       0.010578206 -0.03665382 0.20662463 0.19327514
000030 23 78 8e be 5b b7 bd be 2d 39 a1 3d c2 97 22 3e
       -0.27826032 -0.37053952 0.078722335 0.15878204
000040 00 74 7d be fd e9 94 3b c0 47 84 be 02 b0 ac bc
       -0.24751282 0.004544495 -0.2583599 -0.02108002
000050 a4 c0 a6 be f1 b8 60 3e 55 45 ca bd 6f cd c1 bd
       -0.32568848 0.2194555 -0.09876505 -0.094630115
000060 17 aa 18 be 25 44 5b be 06 ca 18 be 8f 59 87 3e
       -0.14908634 -0.21412714 -0.14920816 0.26435515
000070 7b 95 e7 bb 80 29 92 bc f3 85 82 3e 3e 0e ae 3d
       -0.00706738 -0.017842054 0.2549282 0.0849881
000080 3e 00 66 bd a7 95 48 3d 71 59 89 3d 0a 0c 46 be
       -0.056152575 0.048970845 0.06706513 -0.1934053
000090 84 22 90 be e7 6c bd 3e 7d a9 60 3e 4c e8 a7 bd
       -0.28151333 0.36997148 0.21939655 -0.08198604
0000a0 bd 8f a6 3a 17 12 2a bc 65 10 51 be a8 a8 c3 3d
       0.0012707632 -0.0103802895 -0.2041641 0.09553653
0000b0 d6 ed 29 3e d8 f6 a7 3b e1 d6 cd bd cd ea c5 3d
       0.16594633 0.0051258616 -0.100507505 0.09663925
0000c0 31 1f 6d 3e 3f 77 52 3e b5 c7 24 bc 7a cc be 3b
       0.2315643 0.20553301 -0.0100573795 0.0058227153
0000d0 79 68 1b 3d ca fe db 3d d2 10 67 3e 6a 27 44 3e
       0.03794143 0.107419565 0.2256501 0.1915566
0000e0 f2 66 44 bc 12 76 67 3e 76 fc eb bd 99 78 b9 3d
       -0.011987435 0.22603634 -0.115227625 0.09056205
0000f0 79 e2 cf bd bc 13 ca bd 84 ca 95 be 60 77 de 3e
       -0.10150618 -0.09867045 -0.2925607 0.4345045
000100 35 1a 6c 3e 58 5a 85 be 71 65 46 be 6a f6 21 3e
       0.23056872 -0.2604549 -0.19374634 0.15816656
000110 9f 4e 89 3e e2 ee 99 bc ba 8a e3 3d 89 a4 ea 3e
       0.26817796 -0.018790666 0.11110444 0.45828655
000120 08 f2 56 be f9 2d 98 3d 4a 6b f2 3d 06 81 42 bc
       -0.20990765 0.074306436 0.1183687 -0.011871582
000130 79 29 8b 3e 6b b9 23 be cd 34 23 be e5 e2 dc bc
       0.2718008 -0.159887 -0.1593811 -0.02696366
000140 09 c0 4e 3e 61 ce c5 3d 6b 2e 9f bd ef d7 4c 3e
       0.20190443 0.09658504 -0.077725254 0.20004247
000150 4c 7a 31 3e 35 32 44 3e a7 b5 86 3e be bb 17 be
       0.17331809 0.19159777 0.26310465 -0.14817712
000160 10 9f 23 3e 2d 72 48 be ef 01 39 be c6 57 50 be
       0.15978646 -0.19574805 -0.18067144 -0.20345983
000170 2a d7 84 3d 18 af 54 bd ac 7a 67 3c 8f 73 ca 3d
       0.06486352 -0.051924795 0.014128368 0.09885322
000180 a2 24 bf bd 8d 3a e5 3c 90 fc 23 3e 06 f8 ab be
       -0.09333159 0.02798202 0.16014314 -0.33587664
000190 96 ee a3 3c a2 d9 0d 3c 82 3c 0f 3d 13 94 78 be
       0.020011228 0.008657845 0.034969814 -0.24275236
0001a0 65 2a 8c be fd 79 1c bd 90 3b e8 bb 15 73 d7 bd
       -0.27376094 -0.038202275 -0.0070871785 -0.10519997
0001b0 de a3 ae bd 2c 8e e3 3c 52 df 92 3e c8 9f 22 3e
       -0.08527349 0.027777754 0.28686005 0.15881264
0001c0 0c 33 53 bd cc 9e b2 bd 54 26 a9 3e 2f e5 33 3e
       -0.051562354 -0.08721694 0.33037055 0.17567895
0001d0 a3 a3 fd 3d 5b ad b3 3d f3 cb 07 3d d8 29 75 be
       0.12384727 0.08773299 0.033153486 -0.23941743
0001e0 fd 38 ba be db fa 78 3e 7f 9c 0e be 29 77 35 bd
       -0.36371604 0.24314444 -0.13926886 -0.044303093
0001f0 9e e7 de bd e7 cd 30 be 29 98 6c bd 8b 7b 51 bd
       -0.10884021 -0.17266046 -0.0577623 -0.05114321
000200 ed 65 c1 bd c1 c3 94 3d c8 f4 2a 3e 5d a1 f5 bd
       -0.09443269 0.072638996 0.16694939 -0.11993668
000210 bb 43 1d 3e d1 bc 38 3c 5b bb 25 be 74 b7 ba 3d
       0.15357868 0.011275486 -0.16184752 0.09117022
000220 70 bb 00 bd 0d 58 d4 3c 59 14 20 be 09 44 6a be
       -0.031428754 0.025920892 -0.15632762 -0.22877516
000230 a4 11 89 3e 82 1c ab 3e 65 6d 33 be 23 51 6f be
       0.2677127 0.33420187 -0.175222 -0.23370795
000240 39 0e 1d 3e 06 cc 7b 3c cf a3 8b 3e 90 22 14 3e
       0.15337457 0.015368467 0.27273414 0.1446631
000250 15 83 77 3e 88 07 f6 bd 5d 38 67 3e 0b f9 39 bd
       0.24171098 -0.12013155 0.22580095 -0.04540352
000260 d4 af 7a 3e 58 02 59 3e b7 36 23 3e 5f 5b 93 be
       0.24481136 0.211923 0.15938841 -0.28780648
000270 30 b7 3a bd cd 6c 90 3c cb 9b 44 be 00 98 3d 3d
       -0.045584857 0.017630005 -0.19200055 0.046287537
000280 26 ca 45 3d df b9 85 3d ba 39 57 3d 55 01 15 3e
       0.048288487 0.06529593 0.052545287 0.1455129
000290 91 fb a8 3e 20 08 a6 be 7b 76 86 be f5 4d 02 3e
       0.3300443 -0.32428074 -0.26262268 0.12725051
0002a0 36 16 88 bd 14 31 d1 bc fe 56 20 3e 59 4d 1d 3c
       -0.066448614 -0.025536098 0.15658185 0.009600961
0002b0 09 50 ff bd 32 4d 6d 3d 9e 7c fa 3d e6 99 6b bd
       -0.12466437 0.057934947 0.122308 -0.057519816
0002c0 2c 2c 47 be 67 4c 4a be e5 dc c8 3c 35 47 b1 3c
       -0.19450444 -0.19755708 0.024519393 0.0216404
0002d0 0b 4b 0b 3d 0f 42 72 be 1c 6c 63 be 3e 20 f7 bd
       0.034007113 -0.23658012 -0.22209209 -0.120666966
0002e0 01 4e 5f bd 7b 56 e7 bd 02 35 89 3d 76 b5 e1 bd
       -0.05451775 -0.11295792 0.066995636 -0.11020939
0002f0 d2 3f 61 3c 77 73 8a bd 47 a7 0d 3e be cf aa be
       0.013748126 -0.067603044 0.13833342 -0.3336162
000300 76 d8 2c be 1f a8 51 3e f4 d9 2b 3e 00 5b 96 be
       -0.16879448 0.2047429 0.16782361 -0.29366302
000310 2f ce 89 be 50 26 f5 bc 81 37 44 be 6a dc e7 be
       -0.26915118 -0.029925495 -0.19161798 -0.4528535
000320 cc 4d 03 3e 9e 98 d2 bd 78 71 bb bd 42 66 4e 3d
       0.12822646 -0.10283016 -0.09152502 0.05039049
000330 1e 6c ee bd d7 5d 7f 3e a7 1d e7 3d 61 e4 43 bd
       -0.116417155 0.24938141 0.112849526 -0.04782522
000340 84 9c 67 be c2 68 f4 bd 91 0c 83 3d bd eb 52 be
       -0.226183 -0.119340435 0.06398881 -0.2059774
000350 0d 89 5f be 4e 6f 87 be c4 e7 a3 be 81 e8 71 3e
       -0.21829624 -0.26452106 -0.3201276 0.2362385
000360 10 3f 8b be a8 4f a2 3d f7 fe 90 3e 1a a9 89 3e
       -0.2719655 0.079253495 0.28319523 0.26886827
000370 09 31 08 be 5b 2b ac 3d 6f 43 0d be c4 40 b4 bc
       -0.13299955 0.08406707 -0.13795255 -0.022003539
000380 33 ab 91 3d c4 cd 0b be ed bf 72 bd 53 ba a8 3e
       0.07112732 -0.13652712 -0.059265066 0.32954654
000390 5b 83 60 3d 92 ae 32 3d a2 d2 35 3d 7c cd 84 3e
       0.05481277 0.043623514 0.04439033 0.25938022
0003a0 07 53 97 3e 58 97 f8 3d 24 6d 60 bd e2 e9 64 3d
       0.29555532 0.121382415 -0.054791585 0.05588711
0003b0 db 04 94 3d 26 f6 e2 bd 20 9f 00 be 55 71 0d be
       0.072274886 -0.11082105 -0.12560701 -0.13812764
0003c0 3e 91 42 bd d7 b8 ad 3d 44 0f b0 be 08 de c8 bd
       -0.047501795 0.08482521 -0.34386647 -0.09807974
0003d0 b7 ad 21 be 8a c6 cc bd af 7d 1a be c4 4d 3a 3e
       -0.15788923 -0.09998806 -0.15087007 0.18193728
0003e0 a8 95 bc 3e 07 13 f9 bd 71 c6 3e 3e 3a bc 93 3d
       0.3683293 -0.12161832 0.18630387 0.07213636
0003f0 62 02 c5 3d 22 a2 1c 3e 4c f4 0b 3e cd dd 13 3c
       0.09619595 0.15296224 0.1366741 0.009025049

bias f4 [2]
000000 cb d8 bd bb f2 10 e2 3c
       -0.005793666 0.02759597
