ex3/RNN_64.pth (torch, 45680 bytes, 4 tensors)

weight f4 [64, 164]
00000000: 42b8 13be 73c0 243e b1f7 213e 5415 153d
00000010: 3d08 013d 9948 823c 1312 6f3d 4979 fabc
00000020: 90f2 45bd 8891 ccbd 0167 be3d 95ce 14bc
00000030: ab64 2bbb e36f 84bd 84d1 90bd e7b7 7b3c
00000040: 0d82 313d 0ed2 36bc a59a 8a3d d574 2b3e
00000050: e3ba 7f3d 86be 513c e2e6 153e 946f c3bd
00000060: 42bc b13d 5fce ca3d d56d 103e 20b6 cfbc
00000070: 8f97 023e 9d00 b0bd 21d0 64bd 52b5 e83d
00000080: 072e a53d db6c bf3d c857 663d 18d8 953d
00000090: 6c15 a9bc 0ad3 4b3e 3baa 06be a668 14be
000000a0: adad bbbd 620e b83d fa70 373e 2ab0 54bd
000000b0: a1a4 dfbd 657a 02bd f05a 573e c3e3 5bbd
000000c0: 9ffb 2fbd 61a1 3dbd 8868 ce3d 8a98 1fbc
000000d0: a155 993d d7ab 8bbb 355b a23c 5b73 62bd
000000e0: 0837 77bb 2098 41bd f630 003d c96a b53d
000000f0: 475b 113c 320b ec3c 65ea 83bd e0ef 11be
00000100: 5700 473d 003f 08bd 8c55 e03d 492b 873c
00000110: 6e15 7ebd a741 18be 35d2 5b3e 624a f3bb
00000120: aaf1 633d ed01 02bd 18e5 aa3c e3c1 193d
00000130: c0d2 bbbd b558 9ebd 770d 4bbd 6f09 2b3d
00000140: 306a 023c d1c0 9a3c 8463 2b3d b1c1 523d
00000150: 3ffe 46bd 39a9 e6bd b9d7 543d f6a9 98bb
00000160: 5af3 acbc f994 c8bd 9b13 f4bd a915 943d
00000170: e1c3 ce3d d6e0 a53d 2459 afbc 246d 5e3c
00000180: 9e80 8ebd aadf 26be 60db 963d ce2d 3c3e
00000190: 8ca6 6d3d 4a91 513d 5413 1b3e c9cc 993d
000001a0: e39a a2bd 07b5 d53d 1eb1 c33a f266 30bd
000001b0: f87f 623d 785e acbd 3938 a83d f425 ffbc
000001c0: 8bd4 0f3e 122d 2cbd 9440 80bc a125 d3bd
000001d0: df3b 063d 12aa 5f3c b273 03be 7ff7 0b3e
000001e0: c652 b03c 4be6 d03d 0622 1bbd c40f 65bc
000001f0: 3483 f7bd b650 083e e10c 01bd 0eb0 5a3d
00000200: 7c6c 84bc 5a0e 68bc 95ee 9abd 5b9e a03d
00000210: 6442 ce3d bc24 fabd 0cf2 debc 58be 8dbc
00000220: c8dd d3bd 0c4c a7bd 4afc 19be 108e fd3d
00000230: 6c74 48bd f218 19bd 3518 01bd 47ad 26bd
00000240: 6257 a8bd 255a 233d 84a2 9a3d a6ab 47be
00000250: 0722 873d 235f 94bd 4637 833d 5bb6 033e
00000260: 1ceb 9b3c 8cb2 45bc 1090 2dbe 574d 65bd
00000270: 483f c93d 3168 0fbd 5da8 09be ef13 17be
00000280: 8187 96bd b783 103e b427 a7bd c07b 41bd
00000290: 5e2e 26bd 1ecb 00bd e1af 573d 6390 553d
000002a0: 90e3 5dbc 8d0c 093c 2ced 30bd 685d 873d
000002b0: 7508 93be 5cbc 25be ee34 48bd 4020 01be
000002c0: 4a89 91bc 0325 8d3b b750 92bc 2d38 af3d
000002d0: bf31 ec3d 11e8 c3bd 66fa f1bd cee5 953d
000002e0: 215e 03bd bac6 f93d 740b 90bc 5cc0 98bb
000002f0: 7444 203e 46e2 e13b 5cbc 3f3d 2ca9 10bd
00000300: aef0 523e c21c 43bd 1b53 09be a897 593d
00000310: aae8 f9bd e435 82ba 353b 9d3c 9c13 273e
00000320: 0731 e7bb 805a 523d 4d41 3dbe edcc 53bd
00000330: 2cdf 293d b68b c43c 13c8 173c 6174 a93b
00000340: 998f 02be 91a0 283e 3cd2 1f3e d916 1dbd
00000350: 4112 ba3e 48d8 56bd 4bcc bfbd 869f 0abd
00000360: a2e9 b83d 8446 83bd 3f20 0cbc d438 3a3c
00000370: 0045 6d3d 1bd4 223d 71c5 793d 569b 73bd
00000380: 7e0a d23c ceac 0c3e 9c11 cabb fd82 e5bd
00000390: ef68 553d ecd4 4abc dfbe c2bd 2647 1a3c
000003a0: bbe9 8f3d a414 00be 6799 513e 74a1 60bd
000003b0: 4752 98bd c4f8 8dbd 903f 653e 043d 723a
000003c0: df41 393d 46f1 0fbd f40a c3bc a2d4 39be
000003d0: e870 423d d33b b63d d04c b43d 5e8f 833d
000003e0: 2186 bc3d 5aa8 2ebd 5159 44be 16e1 11be
000003f0: 2173 b4bd 6461 12bd cfd3 0f3d 07a0 8bbd
-0.14425758 0.16089039 0.15817143 0.036397293 0.031501997 0.015903758 0.058366846 -0.030575411
-0.04832703 -0.099886954 0.0929699 -0.009082456 -0.0026152532 -0.06466653 -0.07071212 0.01536367
0.043336917 -0.011158479 0.06767777 0.16743787 0.06243409 0.012801772 0.14638856 -0.09542766
0.086784855 0.099026434 0.14104398 -0.025355399 0.12753128 -0.08593867 -0.05586255 0.11362709
0.0806542 0.093469344 0.05623606 0.07316607 -0.020640098 0.19904724 -0.13150875 -0.14493045
-0.091639854 0.08987118 0.17914191 -0.051925816 -0.10920072 -0.031855006 0.21030784 -0.053684007
-0.042964574 -0.04629648 0.100785315 -0.009740958 0.074870355 -0.0042624283 0.019818882 -0.055285793
-0.003772201 -0.04726422 0.031296693 0.08858258 0.00887186 0.028813932 -0.064411916 -0.14251661
0.04858431 -0.033263206 0.10953817 0.016500132 -0.062032156 -0.14868794 0.21466906 -0.0074246386
0.05565039 -0.031740118 0.020861194 0.03753842 -0.09171057 -0.07731763 -0.049573388 0.041757043
0.007959887 0.01889077 0.041842952 0.05145425 -0.04858231 -0.112627454 0.05196354 -0.004658933
-0.021112133 -0.09794039 -0.11917802 0.07230694 0.10095955 0.08099525 -0.02140481 0.013575826
-0.069581255 -0.16296259 0.07366061 0.18376848 0.05802016 0.05116395 0.15144092 0.07509763
-0.079396985 0.10434919 0.0014930104 -0.043066926 0.05529782 -0.08416456 0.082138486 -0.031146027
0.14045922 -0.04203517 -0.015655793 -0.103099115 0.03277194 0.013651388 -0.12837103 0.13668631
0.021523844 0.10200175 -0.037874244 -0.01398081 -0.12085572 0.13312039 -0.031506423 0.053390555
-0.01616501 -0.014163578 -0.07565037 0.07842704 0.10071257 -0.12214038 -0.027215026 -0.017302677
-0.10345036 -0.08168802 -0.15037647 0.12380612 -0.048939154 -0.037377305 -0.031517226 -0.040692594
-0.08219792 0.03988089 0.07550529 -0.19499072 0.06598287 -0.072447084 0.06407027 0.12862532
0.019033007 -0.012066495 -0.16949487 -0.05598196 0.09826523 -0.035011474 -0.13443132 -0.14753698
-0.07350064 0.14112745 -0.0816187 -0.047237158 -0.040571563 -0.031443708 0.052657966 0.05213965
-0.013543025 0.008364809 -0.043194935 0.06609613 -0.2871739 -0.16185135 -0.048878603 -0.12609959
-0.01776566 0.0043073907 -0.017860753 0.085556366 0.11532926 -0.095657475 -0.11815338 0.073192224
-0.03207219 0.12196107 -0.017583586 -0.004661603 0.15651113 0.006893429 0.046810493 -0.035317585
0.20599625 -0.047634847 -0.13410608 0.053123146 -0.1220258 -0.0009934274 0.019193271 0.16316074
-0.007055405 0.05135584 -0.18481942 -0.051709104 0.0414726 0.0239924 0.00926401 0.005171344
-0.1275009 0.16467501 0.15607542 -0.038351867 0.36342052 -0.052452356 -0.09365138 -0.03384354
0.09028937 -0.06409934 -0.00855261 0.011366088 0.05792713 0.03975306 0.06097931 -0.05947431
0.025639769 0.13737795 -0.00616665 -0.11206625 0.052102026 -0.012379866 -0.09509062 0.009416377
0.070270024 -0.12507874 0.20468675 -0.054841474 -0.07437568 -0.06932214 0.22387528 0.00092406594
0.045228835 -0.035142206 -0.023808934 -0.18147519 0.047470957 0.08898129 0.08803713 0.064238295
0.092052706 -0.04264102 -0.19174697 -0.1424602 -0.088110216 -0.03573741 0.035114106 -0.06817632

bias f4 [64]
00000000: 26f8 733d 8e9c a3bc ed8a 323d 4104 2f3d
00000010: ca27 7fbd 335e a43b 1880 5f3d 1de9 743d
00000020: eee6 963d 4ed3 81bd ea56 cb3d 9d85 1abd
00000030: 63b2 a23d aaa9 f63d b84f aebd 42df 21bd
00000040: 86b3 4c3d 0edb 66bd fd8a 09be ee4d 0cbd
00000050: 70cd f2bc 37c9 823d 7670 f4bc 05d2 47bc
00000060: 7159 143d e3d5 e13d 49a0 93bd 2876 e3bc
00000070: 450f b339 9665 4ebd f139 afbd 8c0e 323d
00000080: b5e9 b93d 6679 d7bd 56bf 983c fcc6 82bd
00000090: 45ed f0bd 4bb6 16bd ab1e 51bd c25c 7abd
000000a0: 367f b4bb 14cc a3bd 297f 6f3d 89d4 ddba
000000b0: 776d 17bd 11b4 12bd 3351 6bbd 1713 ffbd
000000c0: 61b0 b03c d50d 38be d18f 5dbc 8889 0c3e
000000d0: a728 d63d 30c3 36bd 457d be3b 44df 61bd
000000e0: cbea 4c3d 33a6 a3bd 36ae 4ebd 0556 ebbd
000000f0: 1d0a 2abe 5b95 8ebc c96e fcbc 8181 923c
0.059562825 -0.019972112 0.04358952 0.042728666 -0.062293805 0.0050161122 0.05456552 0.059792627
0.07368265 -0.06339131 0.09928687 -0.03772508 0.07944181 0.120440796 -0.08511299 -0.039519556
0.049975894 -0.05636125 -0.13431926 -0.034254007 -0.029638976 0.06386035 -0.029838782 -0.012196069
0.03621811 0.11027124 -0.07208306 -0.027766302 0.00034152917 -0.05038985 -0.08555973 0.043470904
0.09077779 -0.10521202 0.018645924 -0.063856095 -0.117640056 -0.036794942 -0.051054638 -0.061123617
-0.005508329 -0.07997909 0.05847088 -0.0016924302 -0.03696963 -0.035816256 -0.057450484 -0.12454813
0.021568479 -0.17974027 -0.013523058 0.13724339 0.104569726 -0.04461974 0.005813273 -0.055144563
0.050028604 -0.07990684 -0.05045911 -0.11491016 -0.1660542 -0.017405203 -0.030814545 0.017884018

weight f4 [2, 64]
00000000: eb8f 973d c2bb 993c bb1c d7bc dbe5 9b3d
00000010: 6c97 783c c479 9d3d a6a2 973d 7929 e23c
00000020: f000 b23d 0db4 853d 35df 9abd 51a9 543d
00000030: cbc6 903d 339f bb3a 6d60 a5bc 4df6 063e
00000040: aec1 20bd afe2 053d d389 babc c8bd d8bd
00000050: 37ad 2abb b4cf 5e3d 4d2c b73d 2c6f 203c
00000060: f097 4a3d 0e40 233b 4bbe 8fbd c872 30bb
00000070: c387 e63d 8c3d e7bc 623d 0b3e 0bc7 0c3d
00000080: 19f1 793d ba77 e13c 88fb de3d 8397 f7bb
00000090: f80f 19bd 208e 28ba 83df f4bc bc03 c8bd
000000a0: 7bda 43bd b471 3bbc 004c 623d 421b a4bd
000000b0: a9e6 15bd 84d4 07bd d214 49ba b767 143d
000000c0: 4111 b5bc 5c33 b9bc 83e1 e0bd 5d1b eabc
000000d0: f745 ee3c 72fb c33d f44e 7fbc 48ad 913d
000000e0: f895 863b d86b 1ebd 9e1c a8bd d6d2 b0bd
000000f0: 21e6 6ebd 9dcd 5f3d 388f 933d d28d 403c
00000100: c0e7 9f3d c800 07bd e7bf 383b c94a 65bc
00000110: b72f a2bc 71b4 273d c927 be3d 2ef0 b5bd
00000120: 9c72 83bb b046 6a3d 49f4 c9bc bafb 103d
00000130: eb81 243d 7ac5 353d 3e1e 813d 57d6 aa3d
00000140: 431a cdbd 3089 023d bb79 b23c 70d8 67bd
00000150: 8620 093d b1a0 ab3d ed8f 083d 448b 9b3b
00000160: cdee 4f3d 8642 633b 2499 833d 0054 dcb9
00000170: 768d ce3d 06a5 dabd 6c75 de3d 11ee 233c
00000180: 0cb1 1cbd 83d1 263d b041 a83d bd39 16bd
00000190: d833 16bb 84ce b63c d263 3f3d 025c ee3c
000001a0: 969c 373d ef26 fc3c 5af1 b23c c14a bfbd
000001b0: 094f 17bd 550e e9bb 5abd 39bd 3529 683d
000001c0: 74c6 0bbd f477 053d f7a2 8abc 2f22 52bd
000001d0: 331b 903c a581 fdbd a5ee 00be 3d05 03bd
000001e0: 8424 393d c126 ffbd 0c7e 04bd f63a 553d
000001f0: 1b50 b63b 7ef4 9f3c 53ef af3d 0ad6 893d
0.07400497 0.018766288 -0.026258817 0.07612201 0.015172821 0.076892406 0.074040696 0.027607666
0.08691585 0.065284826 -0.075621046 0.051919285 0.07069167 0.0014314413 -0.020187581 0.13179894
-0.039247207 0.032686885 -0.022770798 -0.10583073 -0.0026043185 0.0543973 0.089439966 0.00979213
0.049461305 0.0024910006 -0.070187174 -0.0026923884 0.11256363 -0.02822759 0.13597634 0.03436951
0.061020944 0.02752291 0.108878195 -0.0075559034 -0.037368745 -0.00064298697 -0.029891735 -0.09766337
-0.04781578 -0.011440683 0.05524826 -0.080130115 -0.036596928 -0.033161655 -0.0007670644 0.036231723
-0.022102954 -0.022607498 -0.10980513 -0.028577501 0.029086096 0.09569444 -0.015582789 0.07113129
0.004107233 -0.038677067 -0.08208583 -0.08633964 -0.058324937 0.054639447 0.07205051 0.011752563
0.07807875 -0.03295973 0.0028190555 -0.013994881 -0.019798143 0.040943567 0.09284932 -0.08883701
-0.0040114652 0.05719632 -0.024652617 0.035396315 0.040162962 0.04437778 0.06304596 0.08341663
-0.10014775 0.031869113 0.021786561 -0.056602895 0.033478282 0.08380259 0.033340383 0.0047468264
0.050764848 0.0034677102 0.06425694 -0.00042024255 0.10085575 -0.10676007 0.1086224 0.01000549
-0.038254783 0.04072715 0.08215654 -0.036676157 -0.0022919085 0.022315271 0.046726055 0.029096607
0.044827066 0.030780284 0.021843601 -0.0934043 -0.03694061 -0.007112304 -0.045346595 0.056679923
-0.034124807 0.0325851 -0.01692341 -0.05130213 0.017591095 -0.12378243 -0.12591036 -0.031987417
0.04520084 -0.124585636 -0.03234677 0.052058183 0.0055637485 0.019525763 0.08590569 0.06730278

bias f4 [2]
00000000: 1ad7 0f3e b515 d7bd
0.14046898 -0.10502187
