ex3/RNN_128.pth (torch, 121200 bytes, 4 tensors)

weight f4 [128, 228]
0	0x3dba7006	0.09103398
1	0x3d4e2c4e	0.05033522
2	0xbc47c1fc	-0.012192246
3	0xbdcc0651	-0.09962142
4	0x3a4b2191	0.0007748837
5	0xbd991a0a	-0.0747567
6	0x3d097060	0.033554435
7	0x3db4aba1	0.08821798
8	0x3d42016f	0.04736465
9	0xbbd43425	-0.0064759427
10	0x3ddd91f3	0.10818853
11	0x3d0a98ba	0.033837058
12	0x3db8775c	0.09007141
13	0xbc3ed379	-0.011647099
14	0x3e2136c4	0.15743548
15	0x3d2e0e69	0.04249421
16	0xbdfe2f81	-0.124114044
17	0xbc3497c9	-0.0110225165
18	0x3c708f6d	0.014682633
19	0xbcfcb0e5	-0.030846069
20	0x3b55765c	0.0032571768
21	0x3e1ae8e9	0.1512791
22	0xbd4f8a18	-0.050668806
23	0xbe27bbaf	-0.1638019
24	0xbcb0f83b	-0.02160274
25	0x3c2ac831	0.010423706
26	0x3c9c9149	0.019112246
27	0x3caba420	0.020952284
28	0xbe111b51	-0.14170577
29	0x3d17656d	0.03696196
30	0x3cbfab72	0.023397181
31	0xbd4a74e3	-0.049427878
32	0x3cbe3c88	0.023222223
33	0xbe12fd58	-0.14354455
34	0x3c0d1cb8	0.008612804
35	0xbd89c6ee	-0.06727396
36	0xbdabcba6	-0.08388452
37	0x3b03ccaf	0.0020111015
38	0x3e6440ac	0.22290295
39	0x3d1636dc	0.03667341
40	0x3ccde5ac	0.02513393
41	0xbc9a4963	-0.018833822
42	0xbdcb4991	-0.09926141
43	0x3d0b2f7b	0.033980828
44	0x3d5152c7	0.051104333
45	0xbe29472a	-0.16531053
46	0xbe4dbf27	-0.2009245
47	0x3db892e6	0.09012394
48	0xbe0ceeee	-0.1376302
49	0xbbbb1604	-0.0057094116
50	0x3cd8ced9	0.02646582
51	0x3ce9c6c0	0.028537154
52	0x3b6b93ce	0.0035946253
53	0xbd1a0a39	-0.037607405
54	0xbdafe560	-0.08588672
55	0xbc0f64ca	-0.008752057
56	0xbd82094f	-0.06349432
57	0x3e0af2df	0.1356921
58	0xb9db43d8	-0.00041821483
59	0xbd683d1c	-0.056698903
60	0x3d1f851c	0.038945302
61	0xbcfba80c	-0.03071978
62	0xbd13becb	-0.036070626
63	0x3dd5ab1b	0.104330264
64	0xbd81fda2	-0.06347205
65	0x3dbdb4fd	0.092630364
66	0x3d64e7f7	0.05588528
67	0xbb76664d	-0.0037597597
68	0xbe085a95	-0.13315804
69	0xbccec67d	-0.025241131
70	0xbda71471	-0.08158196
71	0xbd648309	-0.055789027
72	0x3dcdbbeb	0.10045608
73	0x3da0d5a5	0.078532495
74	0xbd78c373	-0.06073327
75	0x3d488cc8	0.048962384
76	0xbd6f809c	-0.05847226
77	0x3e125331	0.14289548
78	0xbc0fa084	-0.008766297
79	0x3e263219	0.16230048
80	0xbd122d04	-0.03568746
81	0xbd1672d1	-0.03673059
82	0xbd88f1b9	-0.0668673
83	0xbd4b0c31	-0.049572174
84	0xbdd21035	-0.102569975
85	0x3d55c163	0.05218638
86	0x3dba260d	0.09089289
87	0xbd2e97f6	-0.04262539
88	0xbc28c34b	-0.010300468
89	0x3cec81e6	0.028870534
90	0xbcbe249c	-0.023210816
91	0x3bca62d3	0.0061763315
92	0xbd924905	-0.071428336
93	0xbce09947	-0.027416838
94	0xbcdade74	-0.026717402
95	0xbd22c3ef	-0.039737638
96	0x3e3cc38d	0.18433972
97	0x3dd899bc	0.105761975
98	0xbcf1fd80	-0.029539824
99	0xbd923588	-0.071391165
100	0xbd122e3c	-0.035688624
101	0x3cd13260	0.025536716
102	0x3d1b584b	0.037926
103	0x3ddf14bf	0.10892629
104	0xb9d4e37e	-0.00040605286
105	0x3cb6105e	0.022224601
106	0xbc0a22b7	-0.008431128
107	0x3d646f34	0.055770114
108	0x3c897bf3	0.016782736
109	0xbd023e80	-0.031797886
110	0xbd2947e8	-0.04132834
111	0xbc2ea5e2	-0.010659667
112	0x3d037fbc	0.03210424
113	0x3e1f32e6	0.1554676
114	0x3e7639cf	0.2404549
115	0xbc950d68	-0.01819487
116	0x3dd2ae44	0.10287145
117	0xbd8b39c6	-0.06798129
118	0xbcfcc2de	-0.030854639
119	0xbb3b0c70	-0.002854135
120	0x3e7de178	0.24793041
121	0xbd256b99	-0.040385816
122	0x3d1f15b4	0.038839057
123	0xbd7cd092	-0.061722346
124	0xbc6b1805	-0.014348988
125	0x3db87410	0.09006512
126	0xbd874f74	-0.06606951
127	0x3be123ff	0.006870746
128	0xbe16410e	-0.14673254
129	0x3dbf4553	0.093393944
130	0x3d41472d	0.04718702
131	0xbe37dcc8	-0.17955315
132	0x3e73bee3	0.23803286
133	0x3c1ba727	0.009500301
134	0x3d0f2bc2	0.03495384
135	0x3de5cda0	0.112208605
136	0x3d8619e8	0.0654791
137	0x3c7308bc	0.014833625
138	0xbcd15838	-0.025554761
139	0xbda49f25	-0.08038167
140	0x3db44acd	0.088033296
141	0x3e376235	0.17908557
142	0xbdc2c85e	-0.09510873
143	0xbc97fcf6	-0.018553238
144	0x3d696f8e	0.056991152
145	0x3d8cd436	0.068764135
146	0x3cada797	0.021198077
147	0x3d5bd6ab	0.05367152
148	0x3da89648	0.08231789
149	0xbda99af4	-0.08281508
150	0x3dae4a20	0.08510232
151	0xbd662526	-0.05618777
152	0xbdd6a825	-0.1048129
153	0xbc64fe14	-0.013976593
154	0x3d914872	0.07093896
155	0x3d08aaf6	0.033366166
156	0x3e1650e0	0.14679289
157	0xbc0a93f1	-0.008458124
158	0x3dd7462e	0.105114326
159	0x3e346522	0.17616704
160	0x3d809303	0.0627804
161	0x3d71b834	0.05901356
162	0x3d64a241	0.0558188
163	0x3d8da509	0.069162436
164	0x3a8a3f6c	0.0010547466
165	0xbd8b0f61	-0.06790043
166	0xbdc918fb	-0.09819218
167	0xbe777696	-0.2416633
168	0x3ec04f71	0.3756061
169	0x3d3cea0f	0.046121653
170	0xbdafef0d	-0.08590517
171	0x3d4cd527	0.050007965
172	0xbbafba0a	-0.0053627538
173	0xbd32854b	-0.04358415
174	0x3daa5ddf	0.08318686
175	0xbdf9e309	-0.12201507
176	0xbe923550	-0.285563
177	0x3ca5e7c2	0.020252112
178	0xbdbc66ea	-0.09199317
179	0x3d0082ea	0.03137485
180	0x3d2c0e47	0.042005803
181	0xbdb1f365	-0.08689002
182	0x3de7fe43	0.113277934
183	0xbcc777c0	-0.024349093
184	0x3dd9e565	0.10639457
185	0x3d9696cd	0.07352982
186	0x3d05ae4a	0.032636918
187	0xbdbcf99e	-0.09227298
188	0x3d944e67	0.072415166
189	0xbc38096c	-0.011232715
190	0x3da0c5ae	0.078502044
191	0x3c681dd7	0.014167271
192	0x3d560fb0	0.052261055
193	0x3c1de16b	0.009636263
194	0x3c2c4d86	0.01051653
195	0x3cde4188	0.027130857
196	0xbc39ac27	-0.011332548
197	0xbd66932a	-0.05629269
198	0x3c283211	0.010265843
199	0xbc59b114	-0.013286848
200	0x3d1c3aa7	0.038141873
201	0x3d2f5483	0.042805206
202	0xbe825fae	-0.25463623
203	0xbc09d9ac	-0.008413713
204	0x3d3801b7	0.04492351
205	0x3d00bbf4	0.031429246
206	0x3e0f394a	0.13986698
207	0x3d219cdb	0.03945623
208	0xbe207f30	-0.15673518
209	0xbd0153e1	-0.031574134
210	0xbc2931aa	-0.010326782
211	0xbcc36631	-0.02385244
212	0x3b541f5f	0.0032367331
213	0x3db3560d	0.08756647
214	0x3cc797ae	0.024364319
215	0x3d46da98	0.04854831
216	0xbe40c070	-0.18823409
217	0xbd698e0f	-0.057020243
218	0x3e2898fc	0.16464609
219	0x3e2502e1	0.1611438
220	0x3da91040	0.082550526
221	0x3cccd81e	0.025005396
222	0x3e77b55d	0.24190278
223	0x3d24be1c	0.040220365
224	0xbebdfc3e	-0.37106508
225	0xbde8e3ed	-0.113715984
226	0xbd8822a2	-0.06647231
227	0xbd6e9b04	-0.058253303
228	0x3d8422f1	0.06451977
229	0xbce817a6	-0.028331589
230	0xbbe0e92f	-0.006863735
231	0xbcfaa4ae	-0.030596104
232	0xbc201b4e	-0.009772135
233	0x3da0b075	0.078461565
234	0xbc17bb1f	-0.009260922
235	0xbcc00959	-0.023441957
236	0xbccdff87	-0.025146259
237	0xbd3ea3b4	-0.04654284
238	0x3db22939	0.08699269
239	0x3d47e638	0.048803538
240	0x3caa9957	0.020825071
241	0x3d7897d0	0.060691655
242	0x3e191e20	0.14952898
243	0xbc195411	-0.009358422
244	0x3de904f4	0.11377898
245	0x3d837134	0.06418076
246	0xbd8912dd	-0.06693051
247	0x3cdca663	0.026934808
248	0x3d933bec	0.071891636
249	0xbda5c705	-0.080946006
250	0x3ca29cbf	0.019850133
251	0x3dab18f6	0.0835437
252	0x3d97d0bf	0.07412862
253	0x3cdbef24	0.02684743
254	0x3ce033c9	0.027368443
255	0x3b50eada	0.0031878264

bias f4 [128]
0	0xbd07ad42	-0.033124216
1	0x3a1314dc	0.0005610713
2	0xbd2eb20b	-0.042650264
3	0xbd8a62ea	-0.067571476
4	0xbd308de6	-0.043104075
5	0x3d784021	0.060608033
6	0x3cdda214	0.027054824
7	0xbd78b992	-0.06072385
8	0xbdb757f1	-0.0895232
9	0xbc7f58b2	-0.015585111
10	0x3e11f02f	0.14251779
11	0x3bd6c456	0.006554167
12	0xbcfa0be0	-0.03052324
13	0xbd83216b	-0.06402858
14	0xbd932569	-0.0718487
15	0x3cde9f92	0.027175698
16	0xbd46bfb5	-0.04852267
17	0x3d96b26c	0.0735825
18	0xbd8e2cdb	-0.06942149
19	0x3c9a4309	0.018830793
20	0x3cebdf52	0.02879301
21	0x3d928453	0.07154145
22	0xbcb03d56	-0.021513622
23	0xbd56e84a	-0.052467622
24	0xbd047764	-0.032340422
25	0xbd0bb22d	-0.03410547
26	0xbd883742	-0.066511646
27	0x3d526a4c	0.051370904
28	0xbd4bc1a8	-0.049745232
29	0xbcee779a	-0.029109765
30	0xbccfb1c0	-0.025353312
31	0x3d8a1ca9	0.06743748
32	0xbd40097f	-0.046884056
33	0x3c9b517c	0.018959753
34	0xbd546764	-0.051856413
35	0xbdb7ba36	-0.08971064
36	0xbd83914d	-0.06424198
37	0x3d53f828	0.051750332
38	0xbd93174a	-0.071821764
39	0x3e1b47a9	0.15164055
40	0xbc8f4beb	-0.017492255
41	0xbd3d7c7a	-0.04626129
42	0x3d3fd421	0.04683316
43	0xbbff890f	-0.007798321
44	0x3d6fd5a9	0.05855337
45	0xbc418205	-0.011810784
46	0xbd97f14a	-0.07419069
47	0xbd86a849	-0.065750666
48	0xbd92fd19	-0.07177181
49	0x3ca60bc4	0.020269282
50	0xbd7c932f	-0.061663803
51	0xb91a6202	-0.00014723095
52	0xbe0083a5	-0.12550218
53	0x3df83ba9	0.12120754
54	0xbd07c63c	-0.033148035
55	0xbd0f45fb	-0.034978848
56	0x3d061fe6	0.032745264
57	0xbd33f909	-0.04393867
58	0x3d3020cf	0.04300004
59	0xbd0e9811	-0.03481299
60	0xbb968802	-0.00459385
61	0xbdb9a4fe	-0.09064673
62	0x3d33ba07	0.04387858
63	0x3aa465d0	0.001254255
64	0x3d502994	0.050820902
65	0x3deb0db9	0.11477227
66	0xbd15f077	-0.03660628
67	0x3cf6622d	0.03007611
68	0xbcb3899e	-0.021916207
69	0x3c24e2fa	0.010063881
70	0x3d5bc4ce	0.053654484
71	0xbd0abc91	-0.033871237
72	0xbd153726	-0.036429547
73	0xbd7547d5	-0.059882957
74	0xbdbb40b3	-0.091432
75	0xbcf65225	-0.030068466
76	0x3dc825d8	0.09772843
77	0xbd3c8b88	-0.046031505
78	0x3c6143cb	0.013749073
79	0xbd8dfc4c	-0.069328874
80	0x3cd20d88	0.025641218
81	0x3c90bf20	0.01766926
82	0xbd1c7007	-0.038192775
83	0xbd3c6fe6	-0.046005152
84	0x3d4a03b5	0.04931994
85	0x3cb1c551	0.021700533
86	0xbdcfd8f6	-0.10148804
87	0x3cc3d5f6	0.023905735
88	0x3d4932f1	0.049120847
89	0x3d87ccd7	0.06630867
90	0x3bf22455	0.007389585
91	0x3d10e871	0.035377923
92	0xbd1698ac	-0.036766693
93	0x3de932f6	0.11386673
94	0x3d105fb8	0.035247535
95	0xbccfbe16	-0.025359195
96	0x3c0a3ebc	0.008437809
97	0x3e078335	0.13233645
98	0xbd7c2f39	-0.061568473
99	0xbd300cb9	-0.042980883
100	0xbd27416f	-0.040833887
101	0xbe008ab5	-0.12552913
102	0x3cdbc063	0.026825136
103	0xbcfc803f	-0.030822871
104	0xbc826856	-0.015918892
105	0x3ce2e6ca	0.02769794
106	0xbd13d06b	-0.036087435
107	0x3d6a2843	0.057167303
108	0xbbb3ef89	-0.0054912013
109	0x3c045a4a	0.008078167
110	0xbcd5fca5	-0.026121447
111	0x3ca2e4a8	0.019884422
112	0x3d843860	0.06456065
113	0xbc06d6b8	-0.008229904
114	0xbd1f14af	-0.038838085
115	0x3c0ca27b	0.00858366
116	0x3d73caae	0.059519462
117	0x3b83c75f	0.0040215696
118	0xbcddc655	-0.027072111
119	0xbd2a395a	-0.0415586
120	0xbdde9b1e	-0.1086943
121	0x3ddd6090	0.108094335
122	0xbc88ff54	-0.016723312
123	0x3c5e34ce	0.013562394
124	0x3c086055	0.008323749
125	0x3d2e964d	0.042623807
126	0x3c41b638	0.0118232295
127	0xbdc7284c	-0.09724483

weight f4 [2, 128]
0	0xbc385eb7	-0.0112530505
1	0xbc4ad526	-0.01237992
2	0x3c5f0833	0.013612795
3	0x3c1b8eb2	0.00949447
4	0xbbc7a4dd	-0.0060926513
5	0x3d062a36	0.0327551
6	0x3b4a06d4	0.0030826824
7	0x3cd74418	0.026277587
8	0x3d110933	0.035409164
9	0xbc2f110d	-0.010685218
10	0xbc8e16a5	-0.017344782
11	0x3b0945c0	0.0020946115
12	0x3ae50e46	0.0017475567
13	0x3bdff280	0.006834328
14	0x3c00ed5d	0.007869092
15	0x3d4104d7	0.047123756
16	0xbba5482f	-0.0050440053
17	0x3c64a611	0.013955609
18	0x3d541666	0.051779173
19	0xbd9aacad	-0.075524665
20	0xbb50bf77	-0.0031852403
21	0xbc983f26	-0.018584799
22	0xbb4b1349	-0.0030986837
23	0xbd8cc8e6	-0.06874256
24	0xbd892b97	-0.06697767
25	0x3a09122c	0.0005228843
26	0x3d257031	0.040390197
27	0xbd567f13	-0.05236728
28	0x3d533e88	0.051573306
29	0x3c466245	0.01210839
30	0xbcd0458e	-0.025423791
31	0xbd4746a3	-0.04865135
32	0xbd907748	-0.07054001
33	0xbd904969	-0.07045252
34	0xbd074522	-0.033024915
35	0xbc927e43	-0.017882472
36	0x3d80aa6d	0.06282506
37	0xbd90efcd	-0.07076988
38	0xbbbaa401	-0.0056958203
39	0xbccb51e9	-0.024819331
40	0x3cb76336	0.022386175
41	0x3ccb24c0	0.024797797
42	0x3cad0882	0.02112222
43	0x3cb5e517	0.022203965
44	0x3db47c2a	0.08812745
45	0xbd3b043a	-0.045658328
46	0x3ca6c79b	0.020358851
47	0x3cc9fc26	0.024656367
48	0x3c7c750f	0.015408768
49	0xbc196852	-0.009363251
50	0xbcca4ac2	-0.02469385
51	0xbcbc0a7d	-0.02295422
52	0xbc87157c	-0.016489737
53	0x3cf8e711	0.030383619
54	0xbd73a355	-0.059481937
55	0xbcba8803	-0.022769934
56	0x3ce8d47c	0.028421633
57	0x3d49ecfe	0.04929828
58	0xbcec643a	-0.028856385
59	0xbca8172c	-0.020518862
60	0xbc5a77cf	-0.013334229
61	0x3d08d021	0.033401612
62	0xbbdb9db5	-0.0067021498
63	0xbd46430e	-0.048403792
64	0xbc50c141	-0.012741388
65	0x3ccda453	0.02510277
66	0xbc9c785e	-0.019100364
67	0xbcc5b2a1	-0.024133028
68	0xbd053d1f	-0.032528993
69	0x3d75dc0b	0.060024302
70	0x3bd5e85c	0.0065279435
71	0x3a5ad44a	0.00083476736
72	0xbd86ea14	-0.065876156
73	0xbcf4d078	-0.029884562
74	0xbd0b6415	-0.034030993
75	0xbcb79e17	-0.02241425
76	0x3be582f8	0.007004138
77	0x3dbce4e1	0.09223343
78	0xbbc5c26c	-0.00603514
79	0x3da0a6a9	0.07844288
80	0xbb76104c	-0.0037546335
81	0x3b687a1b	0.003547317
82	0xbb21db02	-0.002469719
83	0xbd833aaa	-0.06407674
84	0x3c07d358	0.008290134
85	0xbd41de2c	-0.04733102
86	0xbd13702e	-0.035995655
87	0x3d08aab1	0.03336591
88	0xbcc04cf1	-0.023474189
89	0x3cad179d	0.021129424
90	0xbcf84e84	-0.030310877
91	0xbd6261fe	-0.055269234
92	0x3cd755ae	0.026285972
93	0xbdb5db66	-0.088797376
94	0x3d9fc296	0.07800786
95	0xbd57e9b0	-0.052713096
96	0xbd3f0e48	-0.04664448
97	0x3ccb2f0b	0.024802705
98	0x3a8d569c	0.0010783258
99	0xbb5d14a6	-0.0033734231
100	0x3d19120e	0.037370734
101	0xbc72609d	-0.014793542
102	0x3b4cc1e4	0.0031243498
103	0x3d438b6e	0.047740392
104	0xbd0e6a3b	-0.034769278
105	0xbd2086c4	-0.039191023
106	0x3c99bcdf	0.018766819
107	0xbcdc8f66	-0.026923846
108	0x3c267167	0.010158873
109	0xbbf1ca0d	-0.0073788227
110	0x3d28011c	0.041016683
111	0x3d033198	0.03202972
112	0xbd652701	-0.0559454
113	0xbcd88429	-0.026430206
114	0xbd6a3429	-0.05717865
115	0x3d5abfa7	0.05340543
116	0xbd87bf85	-0.06628326
117	0x3d848259	0.06470174
118	0x3cf04412	0.029329333
119	0x3cd12df3	0.025534606
120	0x3c84dcaf	0.016218511
121	0x3c9dc6de	0.019259866
122	0xbd2f8b6a	-0.042857565
123	0x3d8434de	0.06455396
124	0x3dbd69f5	0.09248725
125	0x3c96ecaa	0.018423397
126	0x3c86faa5	0.016476939
127	0x3d9228f1	0.07136715
128	0x3ddc91d4	0.10770002
129	0x3ab28363	0.0013619479
130	0x3cbfc9e3	0.023411697
131	0xbd5f04fd	-0.054448117
132	0xbc9b7c44	-0.018980153
133	0xbb05566d	-0.0020345703
134	0xbd2ee32a	-0.04269711
135	0xbd3e5cc4	-0.046475187
136	0xbca6e9b4	-0.02037511
137	0xbdd59ba4	-0.10430077
138	0xbd0342c5	-0.0320461
139	0xbbf7f235	-0.007566715
140	0xbca2148a	-0.019785184
141	0x3c626be7	0.013819671
142	0x3cc9f84a	0.024654526
143	0xbd8f1459	-0.06986303
144	0xbc5aebda	-0.013361895
145	0x3d095bf1	0.033534948
146	0x3d5b2ae1	0.05350769
147	0xbd5c89ce	-0.05384236
148	0x3d5e5eac	0.054289505
149	0xbd308417	-0.04309472
150	0xbca9aa2c	-0.020711027
151	0xbd791f8a	-0.060821094
152	0x3d66ff69	0.05639592
153	0x3cbc9fc7	0.023025407
154	0x3d0e7c83	0.034786712
155	0xbd63bae2	-0.055598147
156	0xbca8e8fa	-0.020618904
157	0xbcb7042b	-0.022340855
158	0xbd3f0d7e	-0.046643727
159	0xbd55cff6	-0.05220028
160	0x3d97eb90	0.07417977
161	0xbd289587	-0.041158225
162	0xbcd61004	-0.026130684
163	0x3da52457	0.08063572
164	0x3a62eda7	0.0008656629
165	0xbd7a58ca	-0.061119832
166	0xbc21e122	-0.009880336
167	0xbcea9b37	-0.028638465
168	0x3c8bf4fc	0.017084591
169	0x3da339fc	0.07970044
170	0xb8a2f91f	-7.7711644e-05
171	0x3d0413e3	0.032245528
172	0xbd25aed9	-0.04044995
173	0xbd00e59f	-0.031468984
174	0xbb61c2c0	-0.0034448355
175	0x3cb95978	0.02262567
176	0x3d0a07a7	0.033698704
177	0xbca4b350	-0.020105034
178	0x3c607b30	0.013701245
179	0xbc9067a7	-0.01762755
180	0x3c9f006c	0.01940938
181	0x3d794f1d	0.060866464
182	0xbd2598e7	-0.040429022
183	0x3cf30c16	0.029668849
184	0xbbd7747b	-0.006575165
185	0x3d8b28f4	0.067949206
186	0xbae5ef69	-0.0017542663
187	0x3c8c4711	0.01712373
188	0x3d44b745	0.048026342
189	0x3d9a6a56	0.07539813
190	0x3d482570	0.04886383
191	0x3b202fb5	0.0024442498
192	0xbc56f26a	-0.013119319
193	0x3c2a0a4a	0.01037843
194	0xbcd5ed08	-0.026114002
195	0xbcc1b217	-0.02364449
196	0xbc111aff	-0.008856534
197	0x3d880424	0.06641415
198	0xbbe02c67	-0.0068412307
199	0x3d6c9673	0.057760667
200	0xbd3531de	-0.04423701
201	0x3cb5ec56	0.02220742
202	0x3cad5f15	0.021163503
203	0xbbb9e84e	-0.005673445
204	0xbbdd05b3	-0.006745064
205	0x3d1ab98a	0.0377746
206	0x39fa200c	0.00047707593
207	0x3c975fc3	0.01847828
208	0xbd1fb1b7	-0.03898784
209	0x3c86425c	0.016389064
210	0xbc9ee82a	-0.019397814
211	0xbd3e73b7	-0.046497073
212	0xbd434f02	-0.04768277
213	0xbd5e442d	-0.054264236
214	0xbcc9c315	-0.024629155
215	0x3d43b51c	0.04778014
216	0x3d318e54	0.043348625
217	0x3d06ee66	0.0329422
218	0x3d60b9bc	0.05486463
219	0xbd86a20f	-0.06573879
220	0x3c299281	0.010349871
221	0xbd1da2e6	-0.03848543
222	0xbda0bd4d	-0.07848606
223	0xbd747842	-0.059685
224	0xbd29e1f8	-0.041475266
225	0xbbd91470	-0.006624751
226	0x3bee2851	0.0072679897
227	0xbd3d6264	-0.04623641
228	0x3d2722bc	0.04080461
229	0x3ad1e90c	0.0016014888
230	0xbd93491b	-0.07191678
231	0x3d7aa105	0.061188716
232	0xbd1a40c9	-0.03765944
233	0xbd17fdc2	-0.037107237
234	0x3d1020d2	0.03518755
235	0xbc89ffc7	-0.016845597
236	0xbd32a6c4	-0.04361607
237	0xbcb37a32	-0.021908853
238	0x3d6f6217	0.058443155
239	0x3c5b7a68	0.013395883
240	0xbd7fdc48	-0.062465936
241	0xbab6ec59	-0.0013955935
242	0xbd55d981	-0.05220938
243	0x3cde2361	0.02711648
244	0xbd7b25e4	-0.061315432
245	0xbc9b9007	-0.018989576
246	0x3c946d83	0.018118626
247	0x3d51d96c	0.05123274
248	0x3cbdbbc2	0.023160819
249	0xbc83a7db	-0.01607125
250	0x3c92c2e9	0.017915206
251	0x3d5cfc00	0.053951263
252	0xbe083a1d	-0.13303418
253	0x3cdc30d1	0.026878746
254	0xbc2eded9	-0.010673248
255	0xbc9592ea	-0.01825853

bias f4 [2]
0	0x3d5e6815	0.05429848
1	0x3cd94735	0.026523212
